…
1: INFO - 04/18/20 13:26:13 - 0:03:28 - Loading data from /data/shared/ConceptualCaptions/XLM_data/50k/test.de-en.de.pth ...
1: INFO - 04/18/20 13:26:14 - 0:03:29 - 50096 words (43583 unique) in 5000 sentences. 2 unknown words (2 unique) covering 0.00% of the data.
1: INFO - 04/18/20 13:26:14 - 0:03:29 - Loading data from /data/shared/ConceptualCaptions/XLM_data/50k/test.de-en.en.pth ...
1: INFO - 04/18/20 13:26:14 - 0:03:29 - 51841 words (43583 unique) in 5000 sentences. 2012 unknown words (1221 unique) covering 3.88% of the data.
3: INFO - 04/18/20 13:26:15 - 0:03:30 - Model: TransformerModel(
3:                                        (projector): Projector(
3:                                          (linear): Linear(in_features=98304, out_features=512, bias=True)
3:                                        )
3:                                        (regional_encodings): RegionalEncodings(
3:                                          (linear): Linear(in_features=4, out_features=512, bias=True)
3:                                        )
3:                                        (position_embeddings): Embedding(512, 512)
3:                                        (lang_embeddings): Embedding(3, 512)
3:                                        (embeddings): Embedding(43583, 512, padding_idx=2)
3:                                        (layer_norm_emb): LayerNorm((512,), eps=1e-12, elementwise_affine=True)
3:                                        (attentions): ModuleList(
3:                                          (0): MultiHeadAttention(
3:                                            (q_lin): Linear(in_features=512, out_features=512, bias=True)
3:                                            (k_lin): Linear(in_features=512, out_features=512, bias=True)
3:                                            (v_lin): Linear(in_features=512, out_features=512, bias=True)
3:                                            (out_lin): Linear(in_features=512, out_features=512, bias=True)
3:                                          )
3:                                          (1): MultiHeadAttention(
3:                                            (q_lin): Linear(in_features=512, out_features=512, bias=True)
3:                                            (k_lin): Linear(in_features=512, out_features=512, bias=True)
3:                                            (v_lin): Linear(in_features=512, out_features=512, bias=True)
3:                                            (out_lin): Linear(in_features=512, out_features=512, bias=True)
3:                                          )
3:                                          (2): MultiHeadAttention(
3:                                            (q_lin): Linear(in_features=512, out_features=512, bias=True)
3:                                            (k_lin): Linear(in_features=512, out_features=512, bias=True)
3:                                            (v_lin): Linear(in_features=512, out_features=512, bias=True)
3:                                            (out_lin): Linear(in_features=512, out_features=512, bias=True)
3:                                          )
3:                                          (3): MultiHeadAttention(
3:                                            (q_lin): Linear(in_features=512, out_features=512, bias=True)
3:                                            (k_lin): Linear(in_features=512, out_features=512, bias=True)
3:                                            (v_lin): Linear(in_features=512, out_features=512, bias=True)
3:                                            (out_lin): Linear(in_features=512, out_features=512, bias=True)
3:                                          )
3:                                          (4): MultiHeadAttention(
3:                                            (q_lin): Linear(in_features=512, out_features=512, bias=True)
3:                                            (k_lin): Linear(in_features=512, out_features=512, bias=True)
3:                                            (v_lin): Linear(in_features=512, out_features=512, bias=True)
3:                                            (out_lin): Linear(in_features=512, out_features=512, bias=True)
3:                                          )
3:                                          (5): MultiHeadAttention(
3:                                            (q_lin): Linear(in_features=512, out_features=512, bias=True)
3:                                            (k_lin): Linear(in_features=512, out_features=512, bias=True)
3:                                            (v_lin): Linear(in_features=512, out_features=512, bias=True)
3:                                            (out_lin): Linear(in_features=512, out_features=512, bias=True)
3:                                          )
3:                                        )
3:                                        (layer_norm1): ModuleList(
3:                                          (0): LayerNorm((512,), eps=1e-12, elementwise_affine=True)
3:                                          (1): LayerNorm((512,), eps=1e-12, elementwise_affine=True)
3:                                          (2): LayerNorm((512,), eps=1e-12, elementwise_affine=True)
3:                                          (3): LayerNorm((512,), eps=1e-12, elementwise_affine=True)
3:                                          (4): LayerNorm((512,), eps=1e-12, elementwise_affine=True)
3:                                          (5): LayerNorm((512,), eps=1e-12, elementwise_affine=True)
3:                                        )
3:                                        (ffns): ModuleList(
3:                                          (0): TransformerFFN(
3:                                            (lin1): Linear(in_features=512, out_features=2048, bias=True)
3:                                            (lin2): Linear(in_features=2048, out_features=512, bias=True)
3:                                          )
3:                                          (1): TransformerFFN(
3:                                            (lin1): Linear(in_features=512, out_features=2048, bias=True)
3:                                            (lin2): Linear(in_features=2048, out_features=512, bias=True)
3:                                          )
3:                                          (2): TransformerFFN(
3:                                            (lin1): Linear(in_features=512, out_features=2048, bias=True)
3:                                            (lin2): Linear(in_features=2048, out_features=512, bias=True)
3:                                          )
3:                                          (3): TransformerFFN(
3:                                            (lin1): Linear(in_features=512, out_features=2048, bias=True)
3:                                            (lin2): Linear(in_features=2048, out_features=512, bias=True)
3:                                          )
3:                                          (4): TransformerFFN(
3:                                            (lin1): Linear(in_features=512, out_features=2048, bias=True)
3:                                            (lin2): Linear(in_features=2048, out_features=512, bias=True)
3:                                          )
3:                                          (5): TransformerFFN(
3:                                            (lin1): Linear(in_features=512, out_features=2048, bias=True)
3:                                            (lin2): Linear(in_features=2048, out_features=512, bias=True)
3:                                          )
3:                                        )
3:                                        (layer_norm2): ModuleList(
3:                                          (0): LayerNorm((512,), eps=1e-12, elementwise_affine=True)
3:                                          (1): LayerNorm((512,), eps=1e-12, elementwise_affine=True)
3:                                          (2): LayerNorm((512,), eps=1e-12, elementwise_affine=True)
3:                                          (3): LayerNorm((512,), eps=1e-12, elementwise_affine=True)
3:                                          (4): LayerNorm((512,), eps=1e-12, elementwise_affine=True)
3:                                          (5): LayerNorm((512,), eps=1e-12, elementwise_affine=True)
3:                                        )
3:                                        (memories): ModuleDict()
3:                                        (pred_layer): PredLayer(
3:                                          (proj): Linear(in_features=512, out_features=43583, bias=True)
3:                                        )
3:                                        (img_pred_layer): ImgPredLayer(
3:                                          (proj): Linear(in_features=512, out_features=601, bias=True)
3:                                        )
3:                                      )
3: INFO - 04/18/20 13:26:15 - 0:03:30 - Number of parameters (model): 92180120
3: INFO - 04/18/20 13:26:16 - 0:03:31 - Removed 0 empty sentences.
3: 
3: 
3: INFO - 04/18/20 13:26:17 - 0:03:31 - ============ Data summary
3: INFO - 04/18/20 13:26:17 - 0:03:31 - Parallel data      - train -        de-en:   3308331
…
3: INFO - 04/18/20 13:26:18 - 0:03:32 - 51874 words (43583 unique) in 5000 sentences. 2079 unknown words (1276 unique) covering 4.01% of the data.
1: INFO - 04/18/20 13:26:18 - 0:03:33 - ============ Data summary
1: INFO - 04/18/20 13:26:18 - 0:03:33 - Parallel data      - train -        de-en:   3308331
1: INFO - 04/18/20 13:26:18 - 0:03:33 - Parallel data      - valid -        de-en:      5000
1: INFO - 04/18/20 13:26:18 - 0:03:33 - Parallel data      -  test -        de-en:      5000
1: 
2: INFO - 04/18/20 13:26:20 - 0:03:34 - Model: TransformerModel(
2:                                        (projector): Projector(
2:                                          (linear): Linear(in_features=98304, out_features=512, bias=True)
2:                                        )
2:                                        (regional_encodings): RegionalEncodings(
2:                                          (linear): Linear(in_features=4, out_features=512, bias=True)
2:                                        )
2:                                        (position_embeddings): Embedding(512, 512)
2:                                        (lang_embeddings): Embedding(3, 512)
2:                                        (embeddings): Embedding(43583, 512, padding_idx=2)
2:                                        (layer_norm_emb): LayerNorm((512,), eps=1e-12, elementwise_affine=True)
2:                                        (attentions): ModuleList(
2:                                          (0): MultiHeadAttention(
2:                                            (q_lin): Linear(in_features=512, out_features=512, bias=True)
2:                                            (k_lin): Linear(in_features=512, out_features=512, bias=True)
2:                                            (v_lin): Linear(in_features=512, out_features=512, bias=True)
2:                                            (out_lin): Linear(in_features=512, out_features=512, bias=True)
2:                                          )
2:                                          (1): MultiHeadAttention(
2:                                            (q_lin): Linear(in_features=512, out_features=512, bias=True)
2:                                            (k_lin): Linear(in_features=512, out_features=512, bias=True)
2:                                            (v_lin): Linear(in_features=512, out_features=512, bias=True)
2:                                            (out_lin): Linear(in_features=512, out_features=512, bias=True)
2:                                          )
2:                                          (2): MultiHeadAttention(
2:                                            (q_lin): Linear(in_features=512, out_features=512, bias=True)
2:                                            (k_lin): Linear(in_features=512, out_features=512, bias=True)
2:                                            (v_lin): Linear(in_features=512, out_features=512, bias=True)
2:                                            (out_lin): Linear(in_features=512, out_features=512, bias=True)
2:                                          )
2:                                          (3): MultiHeadAttention(
2:                                            (q_lin): Linear(in_features=512, out_features=512, bias=True)
2:                                            (k_lin): Linear(in_features=512, out_features=512, bias=True)
2:                                            (v_lin): Linear(in_features=512, out_features=512, bias=True)
2:                                            (out_lin): Linear(in_features=512, out_features=512, bias=True)
2:                                          )
2:                                          (4): MultiHeadAttention(
2:                                            (q_lin): Linear(in_features=512, out_features=512, bias=True)
2:                                            (k_lin): Linear(in_features=512, out_features=512, bias=True)
2:                                            (v_lin): Linear(in_features=512, out_features=512, bias=True)
2:                                            (out_lin): Linear(in_features=512, out_features=512, bias=True)
2:                                          )
2:                                          (5): MultiHeadAttention(
2:                                            (q_lin): Linear(in_features=512, out_features=512, bias=True)
2:                                            (k_lin): Linear(in_features=512, out_features=512, bias=True)
2:                                            (v_lin): Linear(in_features=512, out_features=512, bias=True)
2:                                            (out_lin): Linear(in_features=512, out_features=512, bias=True)
2:                                          )
2:                                        )
2:                                        (layer_norm1): ModuleList(
2:                                          (0): LayerNorm((512,), eps=1e-12, elementwise_affine=True)
2:                                          (1): LayerNorm((512,), eps=1e-12, elementwise_affine=True)
2:                                          (2): LayerNorm((512,), eps=1e-12, elementwise_affine=True)
2:                                          (3): LayerNorm((512,), eps=1e-12, elementwise_affine=True)
2:                                          (4): LayerNorm((512,), eps=1e-12, elementwise_affine=True)
2:                                          (5): LayerNorm((512,), eps=1e-12, elementwise_affine=True)
2:                                        )
2:                                        (ffns): ModuleList(
2:                                          (0): TransformerFFN(
2:                                            (lin1): Linear(in_features=512, out_features=2048, bias=True)
2:                                            (lin2): Linear(in_features=2048, out_features=512, bias=True)
2:                                          )
2:                                          (1): TransformerFFN(
2:                                            (lin1): Linear(in_features=512, out_features=2048, bias=True)
2:                                            (lin2): Linear(in_features=2048, out_features=512, bias=True)
2:                                          )
2:                                          (2): TransformerFFN(
2:                                            (lin1): Linear(in_features=512, out_features=2048, bias=True)
2:                                            (lin2): Linear(in_features=2048, out_features=512, bias=True)
2:                                          )
2:                                          (3): TransformerFFN(
2:                                            (lin1): Linear(in_features=512, out_features=2048, bias=True)
2:                                            (lin2): Linear(in_features=2048, out_features=512, bias=True)
2:                                          )
2:                                          (4): TransformerFFN(
2:                                            (lin1): Linear(in_features=512, out_features=2048, bias=True)
2:                                            (lin2): Linear(in_features=2048, out_features=512, bias=True)
2:                                          )
2:                                          (5): TransformerFFN(
2:                                            (lin1): Linear(in_features=512, out_features=2048, bias=True)
2:                                            (lin2): Linear(in_features=2048, out_features=512, bias=True)
2:                                          )
2:                                        )
2:                                        (layer_norm2): ModuleList(
2:                                          (0): LayerNorm((512,), eps=1e-12, elementwise_affine=True)
2:                                          (1): LayerNorm((512,), eps=1e-12, elementwise_affine=True)
2:                                          (2): LayerNorm((512,), eps=1e-12, elementwise_affine=True)
2:                                          (3): LayerNorm((512,), eps=1e-12, elementwise_affine=True)
2:                                          (4): LayerNorm((512,), eps=1e-12, elementwise_affine=True)
2:                                          (5): LayerNorm((512,), eps=1e-12, elementwise_affine=True)
2:                                        )
2:                                        (memories): ModuleDict()
2:                                        (pred_layer): PredLayer(
2:                                          (proj): Linear(in_features=512, out_features=43583, bias=True)
2:                                        )
2:                                        (img_pred_layer): ImgPredLayer(
2:                                          (proj): Linear(in_features=512, out_features=601, bias=True)
2:                                        )
2:                                      )
2: INFO - 04/18/20 13:26:20 - 0:03:34 - Number of parameters (model): 92180120
0: INFO - 04/18/20 13:26:21 - 0:03:36 - Removed 0 empty sentences.
0: 
0: 
0: INFO - 04/18/20 13:26:21 - 0:03:36 - ============ Data summary
0: INFO - 04/18/20 13:26:21 - 0:03:36 - Parallel data      - train -        de-en:   3308331
0: INFO - 04/18/20 13:26:21 - 0:03:36 - Parallel data      - valid -        de-en:      5000
0: INFO - 04/18/20 13:26:21 - 0:03:36 - Parallel data      -  test -        de-en:      5000
0: 
0: INFO - 04/18/20 13:26:22 - 0:03:37 - Model: TransformerModel(
0:                                        (projector): Projector(
0:                                          (linear): Linear(in_features=98304, out_features=512, bias=True)
0:                                        )
0:                                        (regional_encodings): RegionalEncodings(
0:                                          (linear): Linear(in_features=4, out_features=512, bias=True)
0:                                        )
0:                                        (position_embeddings): Embedding(512, 512)
0:                                        (lang_embeddings): Embedding(3, 512)
0:                                        (embeddings): Embedding(43583, 512, padding_idx=2)
0:                                        (layer_norm_emb): LayerNorm((512,), eps=1e-12, elementwise_affine=True)
0:                                        (attentions): ModuleList(
0:                                          (0): MultiHeadAttention(
0:                                            (q_lin): Linear(in_features=512, out_features=512, bias=True)
0:                                            (k_lin): Linear(in_features=512, out_features=512, bias=True)
0:                                            (v_lin): Linear(in_features=512, out_features=512, bias=True)
0:                                            (out_lin): Linear(in_features=512, out_features=512, bias=True)
0:                                          )
0:                                          (1): MultiHeadAttention(
0:                                            (q_lin): Linear(in_features=512, out_features=512, bias=True)
0:                                            (k_lin): Linear(in_features=512, out_features=512, bias=True)
0:                                            (v_lin): Linear(in_features=512, out_features=512, bias=True)
0:                                            (out_lin): Linear(in_features=512, out_features=512, bias=True)
0:                                          )
0:                                          (2): MultiHeadAttention(
0:                                            (q_lin): Linear(in_features=512, out_features=512, bias=True)
0:                                            (k_lin): Linear(in_features=512, out_features=512, bias=True)
0:                                            (v_lin): Linear(in_features=512, out_features=512, bias=True)
0:                                            (out_lin): Linear(in_features=512, out_features=512, bias=True)
0:                                          )
0:                                          (3): MultiHeadAttention(
0:                                            (q_lin): Linear(in_features=512, out_features=512, bias=True)
0:                                            (k_lin): Linear(in_features=512, out_features=512, bias=True)
0:                                            (v_lin): Linear(in_features=512, out_features=512, bias=True)
0:                                            (out_lin): Linear(in_features=512, out_features=512, bias=True)
0:                                          )
0:                                          (4): MultiHeadAttention(
0:                                            (q_lin): Linear(in_features=512, out_features=512, bias=True)
0:                                            (k_lin): Linear(in_features=512, out_features=512, bias=True)
0:                                            (v_lin): Linear(in_features=512, out_features=512, bias=True)
0:                                            (out_lin): Linear(in_features=512, out_features=512, bias=True)
0:                                          )
0:                                          (5): MultiHeadAttention(
0:                                            (q_lin): Linear(in_features=512, out_features=512, bias=True)
0:                                            (k_lin): Linear(in_features=512, out_features=512, bias=True)
0:                                            (v_lin): Linear(in_features=512, out_features=512, bias=True)
0:                                            (out_lin): Linear(in_features=512, out_features=512, bias=True)
0:                                          )
0:                                        )
0:                                        (layer_norm1): ModuleList(
0:                                          (0): LayerNorm((512,), eps=1e-12, elementwise_affine=True)
0:                                          (1): LayerNorm((512,), eps=1e-12, elementwise_affine=True)
0:                                          (2): LayerNorm((512,), eps=1e-12, elementwise_affine=True)
0:                                          (3): LayerNorm((512,), eps=1e-12, elementwise_affine=True)
0:                                          (4): LayerNorm((512,), eps=1e-12, elementwise_affine=True)
0:                                          (5): LayerNorm((512,), eps=1e-12, elementwise_affine=True)
0:                                        )
0:                                        (ffns): ModuleList(
0:                                          (0): TransformerFFN(
0:                                            (lin1): Linear(in_features=512, out_features=2048, bias=True)
0:                                            (lin2): Linear(in_features=2048, out_features=512, bias=True)
0:                                          )
0:                                          (1): TransformerFFN(
0:                                            (lin1): Linear(in_features=512, out_features=2048, bias=True)
0:                                            (lin2): Linear(in_features=2048, out_features=512, bias=True)
0:                                          )
0:                                          (2): TransformerFFN(
0:                                            (lin1): Linear(in_features=512, out_features=2048, bias=True)
0:                                            (lin2): Linear(in_features=2048, out_features=512, bias=True)
0:                                          )
0:                                          (3): TransformerFFN(
0:                                            (lin1): Linear(in_features=512, out_features=2048, bias=True)
0:                                            (lin2): Linear(in_features=2048, out_features=512, bias=True)
0:                                          )
0:                                          (4): TransformerFFN(
0:                                            (lin1): Linear(in_features=512, out_features=2048, bias=True)
0:                                            (lin2): Linear(in_features=2048, out_features=512, bias=True)
0:                                          )
0:                                          (5): TransformerFFN(
0:                                            (lin1): Linear(in_features=512, out_features=2048, bias=True)
0:                                            (lin2): Linear(in_features=2048, out_features=512, bias=True)
0:                                          )
0:                                        )
0:                                        (layer_norm2): ModuleList(
0:                                          (0): LayerNorm((512,), eps=1e-12, elementwise_affine=True)
0:                                          (1): LayerNorm((512,), eps=1e-12, elementwise_affine=True)
0:                                          (2): LayerNorm((512,), eps=1e-12, elementwise_affine=True)
0:                                          (3): LayerNorm((512,), eps=1e-12, elementwise_affine=True)
0:                                          (4): LayerNorm((512,), eps=1e-12, elementwise_affine=True)
0:                                          (5): LayerNorm((512,), eps=1e-12, elementwise_affine=True)
0:                                        )
0:                                        (memories): ModuleDict()
0:                                        (pred_layer): PredLayer(
0:                                          (proj): Linear(in_features=512, out_features=43583, bias=True)
0:                                        )
0:                                        (img_pred_layer): ImgPredLayer(
0:                                          (proj): Linear(in_features=512, out_features=601, bias=True)
0:                                        )
0:                                      )
0: INFO - 04/18/20 13:26:22 - 0:03:37 - Number of parameters (model): 92180120
1: INFO - 04/18/20 13:26:27 - 0:03:42 - Model: TransformerModel(
1:                                        (projector): Projector(
1:                                          (linear): Linear(in_features=98304, out_features=512, bias=True)
1:                                        )
1:                                        (regional_encodings): RegionalEncodings(
1:                                          (linear): Linear(in_features=4, out_features=512, bias=True)
1:                                        )
1:                                        (position_embeddings): Embedding(512, 512)
1:                                        (lang_embeddings): Embedding(3, 512)
1:                                        (embeddings): Embedding(43583, 512, padding_idx=2)
1:                                        (layer_norm_emb): LayerNorm((512,), eps=1e-12, elementwise_affine=True)
1:                                        (attentions): ModuleList(
1:                                          (0): MultiHeadAttention(
1:                                            (q_lin): Linear(in_features=512, out_features=512, bias=True)
1:                                            (k_lin): Linear(in_features=512, out_features=512, bias=True)
1:                                            (v_lin): Linear(in_features=512, out_features=512, bias=True)
1:                                            (out_lin): Linear(in_features=512, out_features=512, bias=True)
1:                                          )
1:                                          (1): MultiHeadAttention(
1:                                            (q_lin): Linear(in_features=512, out_features=512, bias=True)
1:                                            (k_lin): Linear(in_features=512, out_features=512, bias=True)
1:                                            (v_lin): Linear(in_features=512, out_features=512, bias=True)
1:                                            (out_lin): Linear(in_features=512, out_features=512, bias=True)
1:                                          )
1:                                          (2): MultiHeadAttention(
1:                                            (q_lin): Linear(in_features=512, out_features=512, bias=True)
1:                                            (k_lin): Linear(in_features=512, out_features=512, bias=True)
1:                                            (v_lin): Linear(in_features=512, out_features=512, bias=True)
1:                                            (out_lin): Linear(in_features=512, out_features=512, bias=True)
1:                                          )
1:                                          (3): MultiHeadAttention(
1:                                            (q_lin): Linear(in_features=512, out_features=512, bias=True)
1:                                            (k_lin): Linear(in_features=512, out_features=512, bias=True)
1:                                            (v_lin): Linear(in_features=512, out_features=512, bias=True)
1:                                            (out_lin): Linear(in_features=512, out_features=512, bias=True)
1:                                          )
1:                                          (4): MultiHeadAttention(
1:                                            (q_lin): Linear(in_features=512, out_features=512, bias=True)
1:                                            (k_lin): Linear(in_features=512, out_features=512, bias=True)
1:                                            (v_lin): Linear(in_features=512, out_features=512, bias=True)
1:                                            (out_lin): Linear(in_features=512, out_features=512, bias=True)
1:                                          )
1:                                          (5): MultiHeadAttention(
1:                                            (q_lin): Linear(in_features=512, out_features=512, bias=True)
1:                                            (k_lin): Linear(in_features=512, out_features=512, bias=True)
1:                                            (v_lin): Linear(in_features=512, out_features=512, bias=True)
1:                                            (out_lin): Linear(in_features=512, out_features=512, bias=True)
1:                                          )
1:                                        )
1:                                        (layer_norm1): ModuleList(
1:                                          (0): LayerNorm((512,), eps=1e-12, elementwise_affine=True)
1:                                          (1): LayerNorm((512,), eps=1e-12, elementwise_affine=True)
1:                                          (2): LayerNorm((512,), eps=1e-12, elementwise_affine=True)
1:                                          (3): LayerNorm((512,), eps=1e-12, elementwise_affine=True)
1:                                          (4): LayerNorm((512,), eps=1e-12, elementwise_affine=True)
1:                                          (5): LayerNorm((512,), eps=1e-12, elementwise_affine=True)
1:                                        )
1:                                        (ffns): ModuleList(
1:                                          (0): TransformerFFN(
1:                                            (lin1): Linear(in_features=512, out_features=2048, bias=True)
1:                                            (lin2): Linear(in_features=2048, out_features=512, bias=True)
1:                                          )
1:                                          (1): TransformerFFN(
1:                                            (lin1): Linear(in_features=512, out_features=2048, bias=True)
1:                                            (lin2): Linear(in_features=2048, out_features=512, bias=True)
1:                                          )
1:                                          (2): TransformerFFN(
1:                                            (lin1): Linear(in_features=512, out_features=2048, bias=True)
1:                                            (lin2): Linear(in_features=2048, out_features=512, bias=True)
1:                                          )
1:                                          (3): TransformerFFN(
1:                                            (lin1): Linear(in_features=512, out_features=2048, bias=True)
1:                                            (lin2): Linear(in_features=2048, out_features=512, bias=True)
1:                                          )
1:                                          (4): TransformerFFN(
1:                                            (lin1): Linear(in_features=512, out_features=2048, bias=True)
1:                                            (lin2): Linear(in_features=2048, out_features=512, bias=True)
1:                                          )
1:                                          (5): TransformerFFN(
1:                                            (lin1): Linear(in_features=512, out_features=2048, bias=True)
1:                                            (lin2): Linear(in_features=2048, out_features=512, bias=True)
1:                                          )
1:                                        )
1:                                        (layer_norm2): ModuleList(
1:                                          (0): LayerNorm((512,), eps=1e-12, elementwise_affine=True)
1:                                          (1): LayerNorm((512,), eps=1e-12, elementwise_affine=True)
1:                                          (2): LayerNorm((512,), eps=1e-12, elementwise_affine=True)
1:                                          (3): LayerNorm((512,), eps=1e-12, elementwise_affine=True)
1:                                          (4): LayerNorm((512,), eps=1e-12, elementwise_affine=True)
1:                                          (5): LayerNorm((512,), eps=1e-12, elementwise_affine=True)
1:                                        )
1:                                        (memories): ModuleDict()
1:                                        (pred_layer): PredLayer(
1:                                          (proj): Linear(in_features=512, out_features=43583, bias=True)
1:                                        )
1:                                        (img_pred_layer): ImgPredLayer(
1:                                          (proj): Linear(in_features=512, out_features=601, bias=True)
1:                                        )
1:                                      )
1: INFO - 04/18/20 13:26:27 - 0:03:42 - Number of parameters (model): 92180120
2: INFO - 04/18/20 13:26:30 - 0:03:44 - Model: TransformerModel(
2:                                        (projector): Projector(
2:                                          (linear): Linear(in_features=98304, out_features=512, bias=True)
2:                                        )
2:                                        (regional_encodings): RegionalEncodings(
2:                                          (linear): Linear(in_features=4, out_features=512, bias=True)
2:                                        )
2:                                        (position_embeddings): Embedding(512, 512)
2:                                        (lang_embeddings): Embedding(3, 512)
2:                                        (embeddings): Embedding(43583, 512, padding_idx=2)
2:                                        (layer_norm_emb): LayerNorm((512,), eps=1e-12, elementwise_affine=True)
2:                                        (attentions): ModuleList(
2:                                          (0): MultiHeadAttention(
2:                                            (q_lin): Linear(in_features=512, out_features=512, bias=True)
2:                                            (k_lin): Linear(in_features=512, out_features=512, bias=True)
2:                                            (v_lin): Linear(in_features=512, out_features=512, bias=True)
2:                                            (out_lin): Linear(in_features=512, out_features=512, bias=True)
2:                                          )
2:                                          (1): MultiHeadAttention(
2:                                            (q_lin): Linear(in_features=512, out_features=512, bias=True)
2:                                            (k_lin): Linear(in_features=512, out_features=512, bias=True)
2:                                            (v_lin): Linear(in_features=512, out_features=512, bias=True)
2:                                            (out_lin): Linear(in_features=512, out_features=512, bias=True)
2:                                          )
2:                                          (2): MultiHeadAttention(
2:                                            (q_lin): Linear(in_features=512, out_features=512, bias=True)
2:                                            (k_lin): Linear(in_features=512, out_features=512, bias=True)
2:                                            (v_lin): Linear(in_features=512, out_features=512, bias=True)
2:                                            (out_lin): Linear(in_features=512, out_features=512, bias=True)
2:                                          )
2:                                          (3): MultiHeadAttention(
2:                                            (q_lin): Linear(in_features=512, out_features=512, bias=True)
2:                                            (k_lin): Linear(in_features=512, out_features=512, bias=True)
2:                                            (v_lin): Linear(in_features=512, out_features=512, bias=True)
2:                                            (out_lin): Linear(in_features=512, out_features=512, bias=True)
2:                                          )
2:                                          (4): MultiHeadAttention(
2:                                            (q_lin): Linear(in_features=512, out_features=512, bias=True)
2:                                            (k_lin): Linear(in_features=512, out_features=512, bias=True)
2:                                            (v_lin): Linear(in_features=512, out_features=512, bias=True)
2:                                            (out_lin): Linear(in_features=512, out_features=512, bias=True)
2:                                          )
2:                                          (5): MultiHeadAttention(
2:                                            (q_lin): Linear(in_features=512, out_features=512, bias=True)
2:                                            (k_lin): Linear(in_features=512, out_features=512, bias=True)
2:                                            (v_lin): Linear(in_features=512, out_features=512, bias=True)
2:                                            (out_lin): Linear(in_features=512, out_features=512, bias=True)
2:                                          )
2:                                        )
2:                                        (layer_norm1): ModuleList(
2:                                          (0): LayerNorm((512,), eps=1e-12, elementwise_affine=True)
2:                                          (1): LayerNorm((512,), eps=1e-12, elementwise_affine=True)
2:                                          (2): LayerNorm((512,), eps=1e-12, elementwise_affine=True)
2:                                          (3): LayerNorm((512,), eps=1e-12, elementwise_affine=True)
2:                                          (4): LayerNorm((512,), eps=1e-12, elementwise_affine=True)
2:                                          (5): LayerNorm((512,), eps=1e-12, elementwise_affine=True)
2:                                        )
2:                                        (ffns): ModuleList(
2:                                          (0): TransformerFFN(
2:                                            (lin1): Linear(in_features=512, out_features=2048, bias=True)
2:                                            (lin2): Linear(in_features=2048, out_features=512, bias=True)
2:                                          )
2:                                          (1): TransformerFFN(
2:                                            (lin1): Linear(in_features=512, out_features=2048, bias=True)
2:                                            (lin2): Linear(in_features=2048, out_features=512, bias=True)
2:                                          )
2:                                          (2): TransformerFFN(
2:                                            (lin1): Linear(in_features=512, out_features=2048, bias=True)
2:                                            (lin2): Linear(in_features=2048, out_features=512, bias=True)
2:                                          )
2:                                          (3): TransformerFFN(
2:                                            (lin1): Linear(in_features=512, out_features=2048, bias=True)
2:                                            (lin2): Linear(in_features=2048, out_features=512, bias=True)
2:                                          )
2:                                          (4): TransformerFFN(
2:                                            (lin1): Linear(in_features=512, out_features=2048, bias=True)
2:                                            (lin2): Linear(in_features=2048, out_features=512, bias=True)
2:                                          )
2:                                          (5): TransformerFFN(
2:                                            (lin1): Linear(in_features=512, out_features=2048, bias=True)
2:                                            (lin2): Linear(in_features=2048, out_features=512, bias=True)
2:                                          )
2:                                        )
2:                                        (layer_norm2): ModuleList(
2:                                          (0): LayerNorm((512,), eps=1e-12, elementwise_affine=True)
2:                                          (1): LayerNorm((512,), eps=1e-12, elementwise_affine=True)
2:                                          (2): LayerNorm((512,), eps=1e-12, elementwise_affine=True)
2:                                          (3): LayerNorm((512,), eps=1e-12, elementwise_affine=True)
2:                                          (4): LayerNorm((512,), eps=1e-12, elementwise_affine=True)
2:                                          (5): LayerNorm((512,), eps=1e-12, elementwise_affine=True)
2:                                        )
2:                                        (memories): ModuleDict()
2:                                        (pred_layer): PredLayer(
2:                                          (proj): Linear(in_features=512, out_features=43583, bias=True)
2:                                        )
2:                                        (img_pred_layer): ImgPredLayer(
2:                                          (proj): Linear(in_features=512, out_features=601, bias=True)
2:                                        )
2:                                      )
2: INFO - 04/18/20 13:26:30 - 0:03:45 - Number of parameters (model): 92180120
3: INFO - 04/18/20 13:26:32 - 0:03:47 - Removed 0 empty sentences.
3: 
3: INFO - 04/18/20 13:26:32 - 0:03:47 - Loading data from /data/shared/ConceptualCaptions/XLM_data/50k/test.de-en.de.pth ...
…
