…
2: INFO - 04/19/20 17:26:33 - 0:02:47 - Loading data from /data/shared/ConceptualCaptions/XLM_data/50k/test.de-en.de.pth ...
2: INFO - 04/19/20 17:26:33 - 0:02:47 - 50096 words (43583 unique) in 5000 sentences. 2 unknown words (2 unique) covering 0.00% of the data.
2: INFO - 04/19/20 17:26:33 - 0:02:47 - Loading data from /data/shared/ConceptualCaptions/XLM_data/50k/test.de-en.en.pth ...
2: INFO - 04/19/20 17:26:34 - 0:02:47 - 51841 words (43583 unique) in 5000 sentences. 2012 unknown words (1221 unique) covering 3.88% of the data.
1: INFO - 04/19/20 17:26:34 - 0:02:48 - Model: TransformerModel(
1:                                        (projector): Projector(
1:                                          (linear): Linear(in_features=1536, out_features=512, bias=True)
1:                                        )
1:                                        (regional_encodings): RegionalEncodings(
1:                                          (linear): Linear(in_features=4, out_features=512, bias=True)
1:                                        )
1:                                        (position_embeddings): Embedding(512, 512)
1:                                        (lang_embeddings): Embedding(3, 512)
1:                                        (embeddings): Embedding(43583, 512, padding_idx=2)
1:                                        (layer_norm_emb): LayerNorm((512,), eps=1e-12, elementwise_affine=True)
1:                                        (attentions): ModuleList(
1:                                          (0): MultiHeadAttention(
1:                                            (q_lin): Linear(in_features=512, out_features=512, bias=True)
1:                                            (k_lin): Linear(in_features=512, out_features=512, bias=True)
1:                                            (v_lin): Linear(in_features=512, out_features=512, bias=True)
1:                                            (out_lin): Linear(in_features=512, out_features=512, bias=True)
1:                                          )
1:                                          (1): MultiHeadAttention(
1:                                            (q_lin): Linear(in_features=512, out_features=512, bias=True)
1:                                            (k_lin): Linear(in_features=512, out_features=512, bias=True)
1:                                            (v_lin): Linear(in_features=512, out_features=512, bias=True)
1:                                            (out_lin): Linear(in_features=512, out_features=512, bias=True)
1:                                          )
1:                                          (2): MultiHeadAttention(
1:                                            (q_lin): Linear(in_features=512, out_features=512, bias=True)
1:                                            (k_lin): Linear(in_features=512, out_features=512, bias=True)
1:                                            (v_lin): Linear(in_features=512, out_features=512, bias=True)
1:                                            (out_lin): Linear(in_features=512, out_features=512, bias=True)
1:                                          )
1:                                          (3): MultiHeadAttention(
1:                                            (q_lin): Linear(in_features=512, out_features=512, bias=True)
1:                                            (k_lin): Linear(in_features=512, out_features=512, bias=True)
1:                                            (v_lin): Linear(in_features=512, out_features=512, bias=True)
1:                                            (out_lin): Linear(in_features=512, out_features=512, bias=True)
1:                                          )
1:                                          (4): MultiHeadAttention(
1:                                            (q_lin): Linear(in_features=512, out_features=512, bias=True)
1:                                            (k_lin): Linear(in_features=512, out_features=512, bias=True)
1:                                            (v_lin): Linear(in_features=512, out_features=512, bias=True)
1:                                            (out_lin): Linear(in_features=512, out_features=512, bias=True)
1:                                          )
1:                                          (5): MultiHeadAttention(
1:                                            (q_lin): Linear(in_features=512, out_features=512, bias=True)
1:                                            (k_lin): Linear(in_features=512, out_features=512, bias=True)
1:                                            (v_lin): Linear(in_features=512, out_features=512, bias=True)
1:                                            (out_lin): Linear(in_features=512, out_features=512, bias=True)
1:                                          )
1:                                        )
1:                                        (layer_norm1): ModuleList(
1:                                          (0): LayerNorm((512,), eps=1e-12, elementwise_affine=True)
1:                                          (1): LayerNorm((512,), eps=1e-12, elementwise_affine=True)
1:                                          (2): LayerNorm((512,), eps=1e-12, elementwise_affine=True)
1:                                          (3): LayerNorm((512,), eps=1e-12, elementwise_affine=True)
1:                                          (4): LayerNorm((512,), eps=1e-12, elementwise_affine=True)
1:                                          (5): LayerNorm((512,), eps=1e-12, elementwise_affine=True)
1:                                        )
1:                                        (ffns): ModuleList(
1:                                          (0): TransformerFFN(
1:                                            (lin1): Linear(in_features=512, out_features=2048, bias=True)
1:                                            (lin2): Linear(in_features=2048, out_features=512, bias=True)
1:                                          )
1:                                          (1): TransformerFFN(
1:                                            (lin1): Linear(in_features=512, out_features=2048, bias=True)
1:                                            (lin2): Linear(in_features=2048, out_features=512, bias=True)
1:                                          )
1:                                          (2): TransformerFFN(
1:                                            (lin1): Linear(in_features=512, out_features=2048, bias=True)
1:                                            (lin2): Linear(in_features=2048, out_features=512, bias=True)
1:                                          )
1:                                          (3): TransformerFFN(
1:                                            (lin1): Linear(in_features=512, out_features=2048, bias=True)
1:                                            (lin2): Linear(in_features=2048, out_features=512, bias=True)
1:                                          )
1:                                          (4): TransformerFFN(
1:                                            (lin1): Linear(in_features=512, out_features=2048, bias=True)
1:                                            (lin2): Linear(in_features=2048, out_features=512, bias=True)
1:                                          )
1:                                          (5): TransformerFFN(
1:                                            (lin1): Linear(in_features=512, out_features=2048, bias=True)
1:                                            (lin2): Linear(in_features=2048, out_features=512, bias=True)
1:                                          )
1:                                        )
1:                                        (layer_norm2): ModuleList(
1:                                          (0): LayerNorm((512,), eps=1e-12, elementwise_affine=True)
1:                                          (1): LayerNorm((512,), eps=1e-12, elementwise_affine=True)
1:                                          (2): LayerNorm((512,), eps=1e-12, elementwise_affine=True)
1:                                          (3): LayerNorm((512,), eps=1e-12, elementwise_affine=True)
1:                                          (4): LayerNorm((512,), eps=1e-12, elementwise_affine=True)
1:                                          (5): LayerNorm((512,), eps=1e-12, elementwise_affine=True)
1:                                        )
1:                                        (memories): ModuleDict()
1:                                        (pred_layer): PredLayer(
1:                                          (proj): Linear(in_features=512, out_features=43583, bias=True)
1:                                        )
1:                                        (img_pred_layer): ImgPredLayer(
1:                                          (proj): Linear(in_features=512, out_features=601, bias=True)
1:                                        )
1:                                      )
1: INFO - 04/19/20 17:26:34 - 0:02:48 - Number of parameters (model): 42634904
2: INFO - 04/19/20 17:26:36 - 0:02:50 - Removed 0 empty sentences.
2: 
2: 
2: INFO - 04/19/20 17:26:37 - 0:02:50 - ============ Data summary
2: INFO - 04/19/20 17:26:37 - 0:02:50 - Parallel data      - train -        de-en:   3308331
…
3: INFO - 04/19/20 17:27:05 - 0:03:18 - Removed 0 empty sentences.
3: 
3: 
3: INFO - 04/19/20 17:27:05 - 0:03:19 - ============ Data summary
3: INFO - 04/19/20 17:27:05 - 0:03:19 - Parallel data      - train -        de-en:   3308331
3: INFO - 04/19/20 17:27:05 - 0:03:19 - Parallel data      - valid -        de-en:      5000
3: INFO - 04/19/20 17:27:05 - 0:03:19 - Parallel data      -  test -        de-en:      5000
3: 
1: INFO - 04/19/20 17:27:07 - 0:03:20 - Model: TransformerModel(
1:                                        (projector): Projector(
1:                                          (linear): Linear(in_features=1536, out_features=512, bias=True)
1:                                        )
1:                                        (regional_encodings): RegionalEncodings(
1:                                          (linear): Linear(in_features=4, out_features=512, bias=True)
1:                                        )
1:                                        (position_embeddings): Embedding(512, 512)
1:                                        (lang_embeddings): Embedding(3, 512)
1:                                        (embeddings): Embedding(43583, 512, padding_idx=2)
1:                                        (layer_norm_emb): LayerNorm((512,), eps=1e-12, elementwise_affine=True)
1:                                        (attentions): ModuleList(
1:                                          (0): MultiHeadAttention(
1:                                            (q_lin): Linear(in_features=512, out_features=512, bias=True)
1:                                            (k_lin): Linear(in_features=512, out_features=512, bias=True)
1:                                            (v_lin): Linear(in_features=512, out_features=512, bias=True)
1:                                            (out_lin): Linear(in_features=512, out_features=512, bias=True)
1:                                          )
1:                                          (1): MultiHeadAttention(
1:                                            (q_lin): Linear(in_features=512, out_features=512, bias=True)
1:                                            (k_lin): Linear(in_features=512, out_features=512, bias=True)
1:                                            (v_lin): Linear(in_features=512, out_features=512, bias=True)
1:                                            (out_lin): Linear(in_features=512, out_features=512, bias=True)
1:                                          )
1:                                          (2): MultiHeadAttention(
1:                                            (q_lin): Linear(in_features=512, out_features=512, bias=True)
1:                                            (k_lin): Linear(in_features=512, out_features=512, bias=True)
1:                                            (v_lin): Linear(in_features=512, out_features=512, bias=True)
1:                                            (out_lin): Linear(in_features=512, out_features=512, bias=True)
1:                                          )
1:                                          (3): MultiHeadAttention(
1:                                            (q_lin): Linear(in_features=512, out_features=512, bias=True)
1:                                            (k_lin): Linear(in_features=512, out_features=512, bias=True)
1:                                            (v_lin): Linear(in_features=512, out_features=512, bias=True)
1:                                            (out_lin): Linear(in_features=512, out_features=512, bias=True)
1:                                          )
1:                                          (4): MultiHeadAttention(
1:                                            (q_lin): Linear(in_features=512, out_features=512, bias=True)
1:                                            (k_lin): Linear(in_features=512, out_features=512, bias=True)
1:                                            (v_lin): Linear(in_features=512, out_features=512, bias=True)
1:                                            (out_lin): Linear(in_features=512, out_features=512, bias=True)
1:                                          )
1:                                          (5): MultiHeadAttention(
1:                                            (q_lin): Linear(in_features=512, out_features=512, bias=True)
1:                                            (k_lin): Linear(in_features=512, out_features=512, bias=True)
1:                                            (v_lin): Linear(in_features=512, out_features=512, bias=True)
1:                                            (out_lin): Linear(in_features=512, out_features=512, bias=True)
1:                                          )
1:                                        )
1:                                        (layer_norm1): ModuleList(
1:                                          (0): LayerNorm((512,), eps=1e-12, elementwise_affine=True)
1:                                          (1): LayerNorm((512,), eps=1e-12, elementwise_affine=True)
1:                                          (2): LayerNorm((512,), eps=1e-12, elementwise_affine=True)
1:                                          (3): LayerNorm((512,), eps=1e-12, elementwise_affine=True)
1:                                          (4): LayerNorm((512,), eps=1e-12, elementwise_affine=True)
1:                                          (5): LayerNorm((512,), eps=1e-12, elementwise_affine=True)
1:                                        )
1:                                        (ffns): ModuleList(
1:                                          (0): TransformerFFN(
1:                                            (lin1): Linear(in_features=512, out_features=2048, bias=True)
1:                                            (lin2): Linear(in_features=2048, out_features=512, bias=True)
1:                                          )
1:                                          (1): TransformerFFN(
1:                                            (lin1): Linear(in_features=512, out_features=2048, bias=True)
1:                                            (lin2): Linear(in_features=2048, out_features=512, bias=True)
1:                                          )
1:                                          (2): TransformerFFN(
1:                                            (lin1): Linear(in_features=512, out_features=2048, bias=True)
1:                                            (lin2): Linear(in_features=2048, out_features=512, bias=True)
1:                                          )
1:                                          (3): TransformerFFN(
1:                                            (lin1): Linear(in_features=512, out_features=2048, bias=True)
1:                                            (lin2): Linear(in_features=2048, out_features=512, bias=True)
1:                                          )
1:                                          (4): TransformerFFN(
1:                                            (lin1): Linear(in_features=512, out_features=2048, bias=True)
1:                                            (lin2): Linear(in_features=2048, out_features=512, bias=True)
1:                                          )
1:                                          (5): TransformerFFN(
1:                                            (lin1): Linear(in_features=512, out_features=2048, bias=True)
1:                                            (lin2): Linear(in_features=2048, out_features=512, bias=True)
1:                                          )
1:                                        )
1:                                        (layer_norm2): ModuleList(
1:                                          (0): LayerNorm((512,), eps=1e-12, elementwise_affine=True)
1:                                          (1): LayerNorm((512,), eps=1e-12, elementwise_affine=True)
1:                                          (2): LayerNorm((512,), eps=1e-12, elementwise_affine=True)
1:                                          (3): LayerNorm((512,), eps=1e-12, elementwise_affine=True)
1:                                          (4): LayerNorm((512,), eps=1e-12, elementwise_affine=True)
1:                                          (5): LayerNorm((512,), eps=1e-12, elementwise_affine=True)
1:                                        )
1:                                        (memories): ModuleDict()
1:                                        (pred_layer): PredLayer(
1:                                          (proj): Linear(in_features=512, out_features=43583, bias=True)
1:                                        )
1:                                        (img_pred_layer): ImgPredLayer(
1:                                          (proj): Linear(in_features=512, out_features=601, bias=True)
1:                                        )
1:                                      )
1: INFO - 04/19/20 17:27:07 - 0:03:20 - Number of parameters (model): 42634904
0: INFO - 04/19/20 17:27:10 - 0:03:23 - Model: TransformerModel(
0:                                        (projector): Projector(
0:                                          (linear): Linear(in_features=1536, out_features=512, bias=True)
0:                                        )
0:                                        (regional_encodings): RegionalEncodings(
0:                                          (linear): Linear(in_features=4, out_features=512, bias=True)
0:                                        )
0:                                        (position_embeddings): Embedding(512, 512)
0:                                        (lang_embeddings): Embedding(3, 512)
0:                                        (embeddings): Embedding(43583, 512, padding_idx=2)
0:                                        (layer_norm_emb): LayerNorm((512,), eps=1e-12, elementwise_affine=True)
0:                                        (attentions): ModuleList(
0:                                          (0): MultiHeadAttention(
0:                                            (q_lin): Linear(in_features=512, out_features=512, bias=True)
0:                                            (k_lin): Linear(in_features=512, out_features=512, bias=True)
0:                                            (v_lin): Linear(in_features=512, out_features=512, bias=True)
0:                                            (out_lin): Linear(in_features=512, out_features=512, bias=True)
0:                                          )
0:                                          (1): MultiHeadAttention(
0:                                            (q_lin): Linear(in_features=512, out_features=512, bias=True)
0:                                            (k_lin): Linear(in_features=512, out_features=512, bias=True)
0:                                            (v_lin): Linear(in_features=512, out_features=512, bias=True)
0:                                            (out_lin): Linear(in_features=512, out_features=512, bias=True)
0:                                          )
0:                                          (2): MultiHeadAttention(
0:                                            (q_lin): Linear(in_features=512, out_features=512, bias=True)
0:                                            (k_lin): Linear(in_features=512, out_features=512, bias=True)
0:                                            (v_lin): Linear(in_features=512, out_features=512, bias=True)
0:                                            (out_lin): Linear(in_features=512, out_features=512, bias=True)
0:                                          )
0:                                          (3): MultiHeadAttention(
0:                                            (q_lin): Linear(in_features=512, out_features=512, bias=True)
0:                                            (k_lin): Linear(in_features=512, out_features=512, bias=True)
0:                                            (v_lin): Linear(in_features=512, out_features=512, bias=True)
0:                                            (out_lin): Linear(in_features=512, out_features=512, bias=True)
0:                                          )
0:                                          (4): MultiHeadAttention(
0:                                            (q_lin): Linear(in_features=512, out_features=512, bias=True)
0:                                            (k_lin): Linear(in_features=512, out_features=512, bias=True)
0:                                            (v_lin): Linear(in_features=512, out_features=512, bias=True)
0:                                            (out_lin): Linear(in_features=512, out_features=512, bias=True)
0:                                          )
0:                                          (5): MultiHeadAttention(
0:                                            (q_lin): Linear(in_features=512, out_features=512, bias=True)
0:                                            (k_lin): Linear(in_features=512, out_features=512, bias=True)
0:                                            (v_lin): Linear(in_features=512, out_features=512, bias=True)
0:                                            (out_lin): Linear(in_features=512, out_features=512, bias=True)
0:                                          )
0:                                        )
0:                                        (layer_norm1): ModuleList(
0:                                          (0): LayerNorm((512,), eps=1e-12, elementwise_affine=True)
0:                                          (1): LayerNorm((512,), eps=1e-12, elementwise_affine=True)
0:                                          (2): LayerNorm((512,), eps=1e-12, elementwise_affine=True)
0:                                          (3): LayerNorm((512,), eps=1e-12, elementwise_affine=True)
0:                                          (4): LayerNorm((512,), eps=1e-12, elementwise_affine=True)
0:                                          (5): LayerNorm((512,), eps=1e-12, elementwise_affine=True)
0:                                        )
0:                                        (ffns): ModuleList(
0:                                          (0): TransformerFFN(
0:                                            (lin1): Linear(in_features=512, out_features=2048, bias=True)
0:                                            (lin2): Linear(in_features=2048, out_features=512, bias=True)
0:                                          )
0:                                          (1): TransformerFFN(
0:                                            (lin1): Linear(in_features=512, out_features=2048, bias=True)
0:                                            (lin2): Linear(in_features=2048, out_features=512, bias=True)
0:                                          )
0:                                          (2): TransformerFFN(
0:                                            (lin1): Linear(in_features=512, out_features=2048, bias=True)
0:                                            (lin2): Linear(in_features=2048, out_features=512, bias=True)
0:                                          )
0:                                          (3): TransformerFFN(
0:                                            (lin1): Linear(in_features=512, out_features=2048, bias=True)
0:                                            (lin2): Linear(in_features=2048, out_features=512, bias=True)
0:                                          )
0:                                          (4): TransformerFFN(
0:                                            (lin1): Linear(in_features=512, out_features=2048, bias=True)
0:                                            (lin2): Linear(in_features=2048, out_features=512, bias=True)
0:                                          )
0:                                          (5): TransformerFFN(
0:                                            (lin1): Linear(in_features=512, out_features=2048, bias=True)
0:                                            (lin2): Linear(in_features=2048, out_features=512, bias=True)
0:                                          )
0:                                        )
0:                                        (layer_norm2): ModuleList(
0:                                          (0): LayerNorm((512,), eps=1e-12, elementwise_affine=True)
0:                                          (1): LayerNorm((512,), eps=1e-12, elementwise_affine=True)
0:                                          (2): LayerNorm((512,), eps=1e-12, elementwise_affine=True)
0:                                          (3): LayerNorm((512,), eps=1e-12, elementwise_affine=True)
0:                                          (4): LayerNorm((512,), eps=1e-12, elementwise_affine=True)
0:                                          (5): LayerNorm((512,), eps=1e-12, elementwise_affine=True)
0:                                        )
0:                                        (memories): ModuleDict()
0:                                        (pred_layer): PredLayer(
0:                                          (proj): Linear(in_features=512, out_features=43583, bias=True)
0:                                        )
0:                                        (img_pred_layer): ImgPredLayer(
0:                                          (proj): Linear(in_features=512, out_features=601, bias=True)
0:                                        )
0:                                      )
0: INFO - 04/19/20 17:27:10 - 0:03:23 - Number of parameters (model): 42634904
3: INFO - 04/19/20 17:27:19 - 0:03:32 - Model: TransformerModel(
3:                                        (projector): Projector(
3:                                          (linear): Linear(in_features=1536, out_features=512, bias=True)
3:                                        )
3:                                        (regional_encodings): RegionalEncodings(
3:                                          (linear): Linear(in_features=4, out_features=512, bias=True)
3:                                        )
3:                                        (position_embeddings): Embedding(512, 512)
3:                                        (lang_embeddings): Embedding(3, 512)
3:                                        (embeddings): Embedding(43583, 512, padding_idx=2)
3:                                        (layer_norm_emb): LayerNorm((512,), eps=1e-12, elementwise_affine=True)
3:                                        (attentions): ModuleList(
3:                                          (0): MultiHeadAttention(
3:                                            (q_lin): Linear(in_features=512, out_features=512, bias=True)
3:                                            (k_lin): Linear(in_features=512, out_features=512, bias=True)
3:                                            (v_lin): Linear(in_features=512, out_features=512, bias=True)
3:                                            (out_lin): Linear(in_features=512, out_features=512, bias=True)
3:                                          )
3:                                          (1): MultiHeadAttention(
3:                                            (q_lin): Linear(in_features=512, out_features=512, bias=True)
3:                                            (k_lin): Linear(in_features=512, out_features=512, bias=True)
3:                                            (v_lin): Linear(in_features=512, out_features=512, bias=True)
3:                                            (out_lin): Linear(in_features=512, out_features=512, bias=True)
3:                                          )
3:                                          (2): MultiHeadAttention(
3:                                            (q_lin): Linear(in_features=512, out_features=512, bias=True)
3:                                            (k_lin): Linear(in_features=512, out_features=512, bias=True)
3:                                            (v_lin): Linear(in_features=512, out_features=512, bias=True)
3:                                            (out_lin): Linear(in_features=512, out_features=512, bias=True)
3:                                          )
3:                                          (3): MultiHeadAttention(
3:                                            (q_lin): Linear(in_features=512, out_features=512, bias=True)
3:                                            (k_lin): Linear(in_features=512, out_features=512, bias=True)
3:                                            (v_lin): Linear(in_features=512, out_features=512, bias=True)
3:                                            (out_lin): Linear(in_features=512, out_features=512, bias=True)
3:                                          )
3:                                          (4): MultiHeadAttention(
3:                                            (q_lin): Linear(in_features=512, out_features=512, bias=True)
3:                                            (k_lin): Linear(in_features=512, out_features=512, bias=True)
3:                                            (v_lin): Linear(in_features=512, out_features=512, bias=True)
3:                                            (out_lin): Linear(in_features=512, out_features=512, bias=True)
3:                                          )
3:                                          (5): MultiHeadAttention(
3:                                            (q_lin): Linear(in_features=512, out_features=512, bias=True)
3:                                            (k_lin): Linear(in_features=512, out_features=512, bias=True)
3:                                            (v_lin): Linear(in_features=512, out_features=512, bias=True)
3:                                            (out_lin): Linear(in_features=512, out_features=512, bias=True)
3:                                          )
3:                                        )
3:                                        (layer_norm1): ModuleList(
3:                                          (0): LayerNorm((512,), eps=1e-12, elementwise_affine=True)
3:                                          (1): LayerNorm((512,), eps=1e-12, elementwise_affine=True)
3:                                          (2): LayerNorm((512,), eps=1e-12, elementwise_affine=True)
3:                                          (3): LayerNorm((512,), eps=1e-12, elementwise_affine=True)
3:                                          (4): LayerNorm((512,), eps=1e-12, elementwise_affine=True)
3:                                          (5): LayerNorm((512,), eps=1e-12, elementwise_affine=True)
3:                                        )
3:                                        (ffns): ModuleList(
3:                                          (0): TransformerFFN(
3:                                            (lin1): Linear(in_features=512, out_features=2048, bias=True)
3:                                            (lin2): Linear(in_features=2048, out_features=512, bias=True)
3:                                          )
3:                                          (1): TransformerFFN(
3:                                            (lin1): Linear(in_features=512, out_features=2048, bias=True)
3:                                            (lin2): Linear(in_features=2048, out_features=512, bias=True)
3:                                          )
3:                                          (2): TransformerFFN(
3:                                            (lin1): Linear(in_features=512, out_features=2048, bias=True)
3:                                            (lin2): Linear(in_features=2048, out_features=512, bias=True)
3:                                          )
3:                                          (3): TransformerFFN(
3:                                            (lin1): Linear(in_features=512, out_features=2048, bias=True)
3:                                            (lin2): Linear(in_features=2048, out_features=512, bias=True)
3:                                          )
3:                                          (4): TransformerFFN(
3:                                            (lin1): Linear(in_features=512, out_features=2048, bias=True)
3:                                            (lin2): Linear(in_features=2048, out_features=512, bias=True)
3:                                          )
3:                                          (5): TransformerFFN(
3:                                            (lin1): Linear(in_features=512, out_features=2048, bias=True)
3:                                            (lin2): Linear(in_features=2048, out_features=512, bias=True)
3:                                          )
3:                                        )
3:                                        (layer_norm2): ModuleList(
3:                                          (0): LayerNorm((512,), eps=1e-12, elementwise_affine=True)
3:                                          (1): LayerNorm((512,), eps=1e-12, elementwise_affine=True)
3:                                          (2): LayerNorm((512,), eps=1e-12, elementwise_affine=True)
3:                                          (3): LayerNorm((512,), eps=1e-12, elementwise_affine=True)
3:                                          (4): LayerNorm((512,), eps=1e-12, elementwise_affine=True)
3:                                          (5): LayerNorm((512,), eps=1e-12, elementwise_affine=True)
3:                                        )
3:                                        (memories): ModuleDict()
3:                                        (pred_layer): PredLayer(
3:                                          (proj): Linear(in_features=512, out_features=43583, bias=True)
3:                                        )
3:                                        (img_pred_layer): ImgPredLayer(
3:                                          (proj): Linear(in_features=512, out_features=601, bias=True)
3:                                        )
3:                                      )
3: INFO - 04/19/20 17:27:19 - 0:03:32 - Number of parameters (model): 42634904
1: INFO - 04/19/20 17:28:13 - 0:04:27 - Found 0 memories.
1: INFO - 04/19/20 17:28:13 - 0:04:27 - Found 6 FFN.
1: INFO - 04/19/20 17:28:13 - 0:04:27 - Found 108 parameters in model.
1: INFO - 04/19/20 17:28:13 - 0:04:27 - Using nn.parallel.DistributedDataParallel ...
…
