…
0: INFO - 04/21/20 23:16:19 - 0:05:40 - Parallel data      -  test -        de-en:      5000
0: 
1: INFO - 04/21/20 23:16:30 - 0:05:51 - Reloading model from /data/menekse/dumped/xlm_en_de_tlm/3094/best-valid_en_de_mlm_ppl.pth ...
3: INFO - 04/21/20 23:16:30 - 0:05:51 - Reloading model from /data/menekse/dumped/xlm_en_de_tlm/3094/best-valid_en_de_mlm_ppl.pth ...
0: INFO - 04/21/20 23:16:35 - 0:05:56 - Reloading model from /data/menekse/dumped/xlm_en_de_tlm/3094/best-valid_en_de_mlm_ppl.pth ...
5: INFO - 04/21/20 23:16:56 - 0:06:17 - Model: TransformerModel(
5:                                        (projector): Projector(
5:                                          (linear): Linear(in_features=1536, out_features=512, bias=True)
5:                                        )
5:                                        (regional_encodings): RegionalEncodings(
5:                                          (linear): Linear(in_features=4, out_features=512, bias=True)
5:                                        )
5:                                        (position_embeddings): Embedding(512, 512)
5:                                        (lang_embeddings): Embedding(3, 512)
5:                                        (embeddings): Embedding(43583, 512, padding_idx=2)
5:                                        (layer_norm_emb): LayerNorm((512,), eps=1e-12, elementwise_affine=True)
5:                                        (attentions): ModuleList(
5:                                          (0): MultiHeadAttention(
5:                                            (q_lin): Linear(in_features=512, out_features=512, bias=True)
5:                                            (k_lin): Linear(in_features=512, out_features=512, bias=True)
5:                                            (v_lin): Linear(in_features=512, out_features=512, bias=True)
5:                                            (out_lin): Linear(in_features=512, out_features=512, bias=True)
5:                                          )
5:                                          (1): MultiHeadAttention(
5:                                            (q_lin): Linear(in_features=512, out_features=512, bias=True)
5:                                            (k_lin): Linear(in_features=512, out_features=512, bias=True)
5:                                            (v_lin): Linear(in_features=512, out_features=512, bias=True)
5:                                            (out_lin): Linear(in_features=512, out_features=512, bias=True)
5:                                          )
5:                                          (2): MultiHeadAttention(
5:                                            (q_lin): Linear(in_features=512, out_features=512, bias=True)
5:                                            (k_lin): Linear(in_features=512, out_features=512, bias=True)
5:                                            (v_lin): Linear(in_features=512, out_features=512, bias=True)
5:                                            (out_lin): Linear(in_features=512, out_features=512, bias=True)
5:                                          )
5:                                          (3): MultiHeadAttention(
5:                                            (q_lin): Linear(in_features=512, out_features=512, bias=True)
5:                                            (k_lin): Linear(in_features=512, out_features=512, bias=True)
5:                                            (v_lin): Linear(in_features=512, out_features=512, bias=True)
5:                                            (out_lin): Linear(in_features=512, out_features=512, bias=True)
5:                                          )
5:                                          (4): MultiHeadAttention(
5:                                            (q_lin): Linear(in_features=512, out_features=512, bias=True)
5:                                            (k_lin): Linear(in_features=512, out_features=512, bias=True)
5:                                            (v_lin): Linear(in_features=512, out_features=512, bias=True)
5:                                            (out_lin): Linear(in_features=512, out_features=512, bias=True)
5:                                          )
5:                                          (5): MultiHeadAttention(
5:                                            (q_lin): Linear(in_features=512, out_features=512, bias=True)
5:                                            (k_lin): Linear(in_features=512, out_features=512, bias=True)
5:                                            (v_lin): Linear(in_features=512, out_features=512, bias=True)
5:                                            (out_lin): Linear(in_features=512, out_features=512, bias=True)
5:                                          )
5:                                        )
5:                                        (layer_norm1): ModuleList(
5:                                          (0): LayerNorm((512,), eps=1e-12, elementwise_affine=True)
5:                                          (1): LayerNorm((512,), eps=1e-12, elementwise_affine=True)
5:                                          (2): LayerNorm((512,), eps=1e-12, elementwise_affine=True)
5:                                          (3): LayerNorm((512,), eps=1e-12, elementwise_affine=True)
5:                                          (4): LayerNorm((512,), eps=1e-12, elementwise_affine=True)
5:                                          (5): LayerNorm((512,), eps=1e-12, elementwise_affine=True)
5:                                        )
5:                                        (ffns): ModuleList(
5:                                          (0): TransformerFFN(
5:                                            (lin1): Linear(in_features=512, out_features=2048, bias=True)
5:                                            (lin2): Linear(in_features=2048, out_features=512, bias=True)
5:                                          )
5:                                          (1): TransformerFFN(
5:                                            (lin1): Linear(in_features=512, out_features=2048, bias=True)
5:                                            (lin2): Linear(in_features=2048, out_features=512, bias=True)
5:                                          )
5:                                          (2): TransformerFFN(
5:                                            (lin1): Linear(in_features=512, out_features=2048, bias=True)
5:                                            (lin2): Linear(in_features=2048, out_features=512, bias=True)
5:                                          )
5:                                          (3): TransformerFFN(
5:                                            (lin1): Linear(in_features=512, out_features=2048, bias=True)
5:                                            (lin2): Linear(in_features=2048, out_features=512, bias=True)
5:                                          )
5:                                          (4): TransformerFFN(
5:                                            (lin1): Linear(in_features=512, out_features=2048, bias=True)
5:                                            (lin2): Linear(in_features=2048, out_features=512, bias=True)
5:                                          )
5:                                          (5): TransformerFFN(
5:                                            (lin1): Linear(in_features=512, out_features=2048, bias=True)
5:                                            (lin2): Linear(in_features=2048, out_features=512, bias=True)
5:                                          )
5:                                        )
5:                                        (layer_norm2): ModuleList(
5:                                          (0): LayerNorm((512,), eps=1e-12, elementwise_affine=True)
5:                                          (1): LayerNorm((512,), eps=1e-12, elementwise_affine=True)
5:                                          (2): LayerNorm((512,), eps=1e-12, elementwise_affine=True)
5:                                          (3): LayerNorm((512,), eps=1e-12, elementwise_affine=True)
5:                                          (4): LayerNorm((512,), eps=1e-12, elementwise_affine=True)
5:                                          (5): LayerNorm((512,), eps=1e-12, elementwise_affine=True)
5:                                        )
5:                                        (memories): ModuleDict()
5:                                        (pred_layer): PredLayer(
5:                                          (proj): Linear(in_features=512, out_features=43583, bias=True)
5:                                        )
5:                                        (img_pred_layer): ImgPredLayer(
5:                                          (proj): Linear(in_features=512, out_features=601, bias=True)
5:                                        )
5:                                      )
5: INFO - 04/21/20 23:16:56 - 0:06:17 - Number of parameters (model): 42634904
2: INFO - 04/21/20 23:16:58 - 0:06:19 - Model: TransformerModel(
2:                                        (projector): Projector(
2:                                          (linear): Linear(in_features=1536, out_features=512, bias=True)
2:                                        )
2:                                        (regional_encodings): RegionalEncodings(
2:                                          (linear): Linear(in_features=4, out_features=512, bias=True)
2:                                        )
2:                                        (position_embeddings): Embedding(512, 512)
2:                                        (lang_embeddings): Embedding(3, 512)
2:                                        (embeddings): Embedding(43583, 512, padding_idx=2)
2:                                        (layer_norm_emb): LayerNorm((512,), eps=1e-12, elementwise_affine=True)
2:                                        (attentions): ModuleList(
2:                                          (0): MultiHeadAttention(
2:                                            (q_lin): Linear(in_features=512, out_features=512, bias=True)
2:                                            (k_lin): Linear(in_features=512, out_features=512, bias=True)
2:                                            (v_lin): Linear(in_features=512, out_features=512, bias=True)
2:                                            (out_lin): Linear(in_features=512, out_features=512, bias=True)
2:                                          )
2:                                          (1): MultiHeadAttention(
2:                                            (q_lin): Linear(in_features=512, out_features=512, bias=True)
2:                                            (k_lin): Linear(in_features=512, out_features=512, bias=True)
2:                                            (v_lin): Linear(in_features=512, out_features=512, bias=True)
2:                                            (out_lin): Linear(in_features=512, out_features=512, bias=True)
2:                                          )
2:                                          (2): MultiHeadAttention(
2:                                            (q_lin): Linear(in_features=512, out_features=512, bias=True)
2:                                            (k_lin): Linear(in_features=512, out_features=512, bias=True)
2:                                            (v_lin): Linear(in_features=512, out_features=512, bias=True)
2:                                            (out_lin): Linear(in_features=512, out_features=512, bias=True)
2:                                          )
2:                                          (3): MultiHeadAttention(
2:                                            (q_lin): Linear(in_features=512, out_features=512, bias=True)
2:                                            (k_lin): Linear(in_features=512, out_features=512, bias=True)
2:                                            (v_lin): Linear(in_features=512, out_features=512, bias=True)
2:                                            (out_lin): Linear(in_features=512, out_features=512, bias=True)
2:                                          )
2:                                          (4): MultiHeadAttention(
2:                                            (q_lin): Linear(in_features=512, out_features=512, bias=True)
2:                                            (k_lin): Linear(in_features=512, out_features=512, bias=True)
2:                                            (v_lin): Linear(in_features=512, out_features=512, bias=True)
2:                                            (out_lin): Linear(in_features=512, out_features=512, bias=True)
2:                                          )
2:                                          (5): MultiHeadAttention(
2:                                            (q_lin): Linear(in_features=512, out_features=512, bias=True)
2:                                            (k_lin): Linear(in_features=512, out_features=512, bias=True)
2:                                            (v_lin): Linear(in_features=512, out_features=512, bias=True)
2:                                            (out_lin): Linear(in_features=512, out_features=512, bias=True)
2:                                          )
2:                                        )
2:                                        (layer_norm1): ModuleList(
2:                                          (0): LayerNorm((512,), eps=1e-12, elementwise_affine=True)
2:                                          (1): LayerNorm((512,), eps=1e-12, elementwise_affine=True)
2:                                          (2): LayerNorm((512,), eps=1e-12, elementwise_affine=True)
2:                                          (3): LayerNorm((512,), eps=1e-12, elementwise_affine=True)
2:                                          (4): LayerNorm((512,), eps=1e-12, elementwise_affine=True)
2:                                          (5): LayerNorm((512,), eps=1e-12, elementwise_affine=True)
2:                                        )
2:                                        (ffns): ModuleList(
2:                                          (0): TransformerFFN(
2:                                            (lin1): Linear(in_features=512, out_features=2048, bias=True)
2:                                            (lin2): Linear(in_features=2048, out_features=512, bias=True)
2:                                          )
2:                                          (1): TransformerFFN(
2:                                            (lin1): Linear(in_features=512, out_features=2048, bias=True)
2:                                            (lin2): Linear(in_features=2048, out_features=512, bias=True)
2:                                          )
2:                                          (2): TransformerFFN(
2:                                            (lin1): Linear(in_features=512, out_features=2048, bias=True)
2:                                            (lin2): Linear(in_features=2048, out_features=512, bias=True)
2:                                          )
2:                                          (3): TransformerFFN(
2:                                            (lin1): Linear(in_features=512, out_features=2048, bias=True)
2:                                            (lin2): Linear(in_features=2048, out_features=512, bias=True)
2:                                          )
2:                                          (4): TransformerFFN(
2:                                            (lin1): Linear(in_features=512, out_features=2048, bias=True)
2:                                            (lin2): Linear(in_features=2048, out_features=512, bias=True)
2:                                          )
2:                                          (5): TransformerFFN(
2:                                            (lin1): Linear(in_features=512, out_features=2048, bias=True)
2:                                            (lin2): Linear(in_features=2048, out_features=512, bias=True)
2:                                          )
2:                                        )
2:                                        (layer_norm2): ModuleList(
2:                                          (0): LayerNorm((512,), eps=1e-12, elementwise_affine=True)
2:                                          (1): LayerNorm((512,), eps=1e-12, elementwise_affine=True)
2:                                          (2): LayerNorm((512,), eps=1e-12, elementwise_affine=True)
2:                                          (3): LayerNorm((512,), eps=1e-12, elementwise_affine=True)
2:                                          (4): LayerNorm((512,), eps=1e-12, elementwise_affine=True)
2:                                          (5): LayerNorm((512,), eps=1e-12, elementwise_affine=True)
2:                                        )
2:                                        (memories): ModuleDict()
2:                                        (pred_layer): PredLayer(
2:                                          (proj): Linear(in_features=512, out_features=43583, bias=True)
2:                                        )
2:                                        (img_pred_layer): ImgPredLayer(
2:                                          (proj): Linear(in_features=512, out_features=601, bias=True)
2:                                        )
2:                                      )
2: INFO - 04/21/20 23:16:58 - 0:06:19 - Number of parameters (model): 42634904
5: INFO - 04/21/20 23:17:00 - 0:06:22 - Found 0 memories.
5: INFO - 04/21/20 23:17:00 - 0:06:22 - Found 6 FFN.
5: INFO - 04/21/20 23:17:00 - 0:06:22 - Found 108 parameters in model.
5: INFO - 04/21/20 23:17:00 - 0:06:22 - Using nn.parallel.DistributedDataParallel ...
2: INFO - 04/21/20 23:17:01 - 0:06:22 - Found 0 memories.
2: INFO - 04/21/20 23:17:01 - 0:06:22 - Found 6 FFN.
2: INFO - 04/21/20 23:17:01 - 0:06:22 - Found 108 parameters in model.
2: INFO - 04/21/20 23:17:01 - 0:06:22 - Using nn.parallel.DistributedDataParallel ...
4: INFO - 04/21/20 23:17:03 - 0:06:24 - Model: TransformerModel(
4:                                        (projector): Projector(
4:                                          (linear): Linear(in_features=1536, out_features=512, bias=True)
4:                                        )
4:                                        (regional_encodings): RegionalEncodings(
4:                                          (linear): Linear(in_features=4, out_features=512, bias=True)
4:                                        )
4:                                        (position_embeddings): Embedding(512, 512)
4:                                        (lang_embeddings): Embedding(3, 512)
4:                                        (embeddings): Embedding(43583, 512, padding_idx=2)
4:                                        (layer_norm_emb): LayerNorm((512,), eps=1e-12, elementwise_affine=True)
4:                                        (attentions): ModuleList(
4:                                          (0): MultiHeadAttention(
4:                                            (q_lin): Linear(in_features=512, out_features=512, bias=True)
4:                                            (k_lin): Linear(in_features=512, out_features=512, bias=True)
4:                                            (v_lin): Linear(in_features=512, out_features=512, bias=True)
4:                                            (out_lin): Linear(in_features=512, out_features=512, bias=True)
4:                                          )
4:                                          (1): MultiHeadAttention(
4:                                            (q_lin): Linear(in_features=512, out_features=512, bias=True)
4:                                            (k_lin): Linear(in_features=512, out_features=512, bias=True)
4:                                            (v_lin): Linear(in_features=512, out_features=512, bias=True)
4:                                            (out_lin): Linear(in_features=512, out_features=512, bias=True)
4:                                          )
4:                                          (2): MultiHeadAttention(
4:                                            (q_lin): Linear(in_features=512, out_features=512, bias=True)
4:                                            (k_lin): Linear(in_features=512, out_features=512, bias=True)
4:                                            (v_lin): Linear(in_features=512, out_features=512, bias=True)
4:                                            (out_lin): Linear(in_features=512, out_features=512, bias=True)
4:                                          )
4:                                          (3): MultiHeadAttention(
4:                                            (q_lin): Linear(in_features=512, out_features=512, bias=True)
4:                                            (k_lin): Linear(in_features=512, out_features=512, bias=True)
4:                                            (v_lin): Linear(in_features=512, out_features=512, bias=True)
4:                                            (out_lin): Linear(in_features=512, out_features=512, bias=True)
4:                                          )
4:                                          (4): MultiHeadAttention(
4:                                            (q_lin): Linear(in_features=512, out_features=512, bias=True)
4:                                            (k_lin): Linear(in_features=512, out_features=512, bias=True)
4:                                            (v_lin): Linear(in_features=512, out_features=512, bias=True)
4:                                            (out_lin): Linear(in_features=512, out_features=512, bias=True)
4:                                          )
4:                                          (5): MultiHeadAttention(
4:                                            (q_lin): Linear(in_features=512, out_features=512, bias=True)
4:                                            (k_lin): Linear(in_features=512, out_features=512, bias=True)
4:                                            (v_lin): Linear(in_features=512, out_features=512, bias=True)
4:                                            (out_lin): Linear(in_features=512, out_features=512, bias=True)
4:                                          )
4:                                        )
4:                                        (layer_norm1): ModuleList(
4:                                          (0): LayerNorm((512,), eps=1e-12, elementwise_affine=True)
4:                                          (1): LayerNorm((512,), eps=1e-12, elementwise_affine=True)
4:                                          (2): LayerNorm((512,), eps=1e-12, elementwise_affine=True)
4:                                          (3): LayerNorm((512,), eps=1e-12, elementwise_affine=True)
4:                                          (4): LayerNorm((512,), eps=1e-12, elementwise_affine=True)
4:                                          (5): LayerNorm((512,), eps=1e-12, elementwise_affine=True)
4:                                        )
4:                                        (ffns): ModuleList(
4:                                          (0): TransformerFFN(
4:                                            (lin1): Linear(in_features=512, out_features=2048, bias=True)
4:                                            (lin2): Linear(in_features=2048, out_features=512, bias=True)
4:                                          )
4:                                          (1): TransformerFFN(
4:                                            (lin1): Linear(in_features=512, out_features=2048, bias=True)
4:                                            (lin2): Linear(in_features=2048, out_features=512, bias=True)
4:                                          )
4:                                          (2): TransformerFFN(
4:                                            (lin1): Linear(in_features=512, out_features=2048, bias=True)
4:                                            (lin2): Linear(in_features=2048, out_features=512, bias=True)
4:                                          )
4:                                          (3): TransformerFFN(
4:                                            (lin1): Linear(in_features=512, out_features=2048, bias=True)
4:                                            (lin2): Linear(in_features=2048, out_features=512, bias=True)
4:                                          )
4:                                          (4): TransformerFFN(
4:                                            (lin1): Linear(in_features=512, out_features=2048, bias=True)
4:                                            (lin2): Linear(in_features=2048, out_features=512, bias=True)
4:                                          )
4:                                          (5): TransformerFFN(
4:                                            (lin1): Linear(in_features=512, out_features=2048, bias=True)
4:                                            (lin2): Linear(in_features=2048, out_features=512, bias=True)
4:                                          )
4:                                        )
4:                                        (layer_norm2): ModuleList(
4:                                          (0): LayerNorm((512,), eps=1e-12, elementwise_affine=True)
4:                                          (1): LayerNorm((512,), eps=1e-12, elementwise_affine=True)
4:                                          (2): LayerNorm((512,), eps=1e-12, elementwise_affine=True)
4:                                          (3): LayerNorm((512,), eps=1e-12, elementwise_affine=True)
4:                                          (4): LayerNorm((512,), eps=1e-12, elementwise_affine=True)
4:                                          (5): LayerNorm((512,), eps=1e-12, elementwise_affine=True)
4:                                        )
4:                                        (memories): ModuleDict()
4:                                        (pred_layer): PredLayer(
4:                                          (proj): Linear(in_features=512, out_features=43583, bias=True)
4:                                        )
4:                                        (img_pred_layer): ImgPredLayer(
4:                                          (proj): Linear(in_features=512, out_features=601, bias=True)
4:                                        )
4:                                      )
4: INFO - 04/21/20 23:17:03 - 0:06:24 - Number of parameters (model): 42634904
4: INFO - 04/21/20 23:17:07 - 0:06:28 - Found 0 memories.
4: INFO - 04/21/20 23:17:07 - 0:06:28 - Found 6 FFN.
4: INFO - 04/21/20 23:17:07 - 0:06:28 - Found 108 parameters in model.
4: INFO - 04/21/20 23:17:07 - 0:06:28 - Using nn.parallel.DistributedDataParallel ...
4: INFO - 04/21/20 23:17:12 - 0:06:33 - Model: TransformerModel(
4:                                        (projector): Projector(
4:                                          (linear): Linear(in_features=1536, out_features=512, bias=True)
4:                                        )
4:                                        (regional_encodings): RegionalEncodings(
4:                                          (linear): Linear(in_features=4, out_features=512, bias=True)
4:                                        )
4:                                        (position_embeddings): Embedding(512, 512)
4:                                        (lang_embeddings): Embedding(3, 512)
4:                                        (embeddings): Embedding(43583, 512, padding_idx=2)
4:                                        (layer_norm_emb): LayerNorm((512,), eps=1e-12, elementwise_affine=True)
4:                                        (attentions): ModuleList(
4:                                          (0): MultiHeadAttention(
4:                                            (q_lin): Linear(in_features=512, out_features=512, bias=True)
4:                                            (k_lin): Linear(in_features=512, out_features=512, bias=True)
4:                                            (v_lin): Linear(in_features=512, out_features=512, bias=True)
4:                                            (out_lin): Linear(in_features=512, out_features=512, bias=True)
4:                                          )
4:                                          (1): MultiHeadAttention(
4:                                            (q_lin): Linear(in_features=512, out_features=512, bias=True)
4:                                            (k_lin): Linear(in_features=512, out_features=512, bias=True)
4:                                            (v_lin): Linear(in_features=512, out_features=512, bias=True)
4:                                            (out_lin): Linear(in_features=512, out_features=512, bias=True)
4:                                          )
4:                                          (2): MultiHeadAttention(
4:                                            (q_lin): Linear(in_features=512, out_features=512, bias=True)
4:                                            (k_lin): Linear(in_features=512, out_features=512, bias=True)
4:                                            (v_lin): Linear(in_features=512, out_features=512, bias=True)
4:                                            (out_lin): Linear(in_features=512, out_features=512, bias=True)
4:                                          )
4:                                          (3): MultiHeadAttention(
4:                                            (q_lin): Linear(in_features=512, out_features=512, bias=True)
4:                                            (k_lin): Linear(in_features=512, out_features=512, bias=True)
4:                                            (v_lin): Linear(in_features=512, out_features=512, bias=True)
4:                                            (out_lin): Linear(in_features=512, out_features=512, bias=True)
4:                                          )
4:                                          (4): MultiHeadAttention(
4:                                            (q_lin): Linear(in_features=512, out_features=512, bias=True)
4:                                            (k_lin): Linear(in_features=512, out_features=512, bias=True)
4:                                            (v_lin): Linear(in_features=512, out_features=512, bias=True)
4:                                            (out_lin): Linear(in_features=512, out_features=512, bias=True)
4:                                          )
4:                                          (5): MultiHeadAttention(
4:                                            (q_lin): Linear(in_features=512, out_features=512, bias=True)
4:                                            (k_lin): Linear(in_features=512, out_features=512, bias=True)
4:                                            (v_lin): Linear(in_features=512, out_features=512, bias=True)
4:                                            (out_lin): Linear(in_features=512, out_features=512, bias=True)
4:                                          )
4:                                        )
4:                                        (layer_norm1): ModuleList(
4:                                          (0): LayerNorm((512,), eps=1e-12, elementwise_affine=True)
4:                                          (1): LayerNorm((512,), eps=1e-12, elementwise_affine=True)
4:                                          (2): LayerNorm((512,), eps=1e-12, elementwise_affine=True)
4:                                          (3): LayerNorm((512,), eps=1e-12, elementwise_affine=True)
4:                                          (4): LayerNorm((512,), eps=1e-12, elementwise_affine=True)
4:                                          (5): LayerNorm((512,), eps=1e-12, elementwise_affine=True)
4:                                        )
4:                                        (ffns): ModuleList(
4:                                          (0): TransformerFFN(
4:                                            (lin1): Linear(in_features=512, out_features=2048, bias=True)
4:                                            (lin2): Linear(in_features=2048, out_features=512, bias=True)
4:                                          )
4:                                          (1): TransformerFFN(
4:                                            (lin1): Linear(in_features=512, out_features=2048, bias=True)
4:                                            (lin2): Linear(in_features=2048, out_features=512, bias=True)
4:                                          )
4:                                          (2): TransformerFFN(
4:                                            (lin1): Linear(in_features=512, out_features=2048, bias=True)
4:                                            (lin2): Linear(in_features=2048, out_features=512, bias=True)
4:                                          )
4:                                          (3): TransformerFFN(
4:                                            (lin1): Linear(in_features=512, out_features=2048, bias=True)
4:                                            (lin2): Linear(in_features=2048, out_features=512, bias=True)
4:                                          )
4:                                          (4): TransformerFFN(
4:                                            (lin1): Linear(in_features=512, out_features=2048, bias=True)
4:                                            (lin2): Linear(in_features=2048, out_features=512, bias=True)
4:                                          )
4:                                          (5): TransformerFFN(
4:                                            (lin1): Linear(in_features=512, out_features=2048, bias=True)
4:                                            (lin2): Linear(in_features=2048, out_features=512, bias=True)
4:                                          )
4:                                        )
4:                                        (layer_norm2): ModuleList(
4:                                          (0): LayerNorm((512,), eps=1e-12, elementwise_affine=True)
4:                                          (1): LayerNorm((512,), eps=1e-12, elementwise_affine=True)
4:                                          (2): LayerNorm((512,), eps=1e-12, elementwise_affine=True)
4:                                          (3): LayerNorm((512,), eps=1e-12, elementwise_affine=True)
4:                                          (4): LayerNorm((512,), eps=1e-12, elementwise_affine=True)
4:                                          (5): LayerNorm((512,), eps=1e-12, elementwise_affine=True)
4:                                        )
4:                                        (memories): ModuleDict()
4:                                        (pred_layer): PredLayer(
4:                                          (proj): Linear(in_features=512, out_features=43583, bias=True)
4:                                        )
4:                                        (img_pred_layer): ImgPredLayer(
4:                                          (proj): Linear(in_features=512, out_features=601, bias=True)
4:                                        )
4:                                      )
4: INFO - 04/21/20 23:17:12 - 0:06:33 - Number of parameters (model): 42634904
0: INFO - 04/21/20 23:17:12 - 0:06:34 - Model: TransformerModel(
0:                                        (projector): Projector(
0:                                          (linear): Linear(in_features=1536, out_features=512, bias=True)
0:                                        )
0:                                        (regional_encodings): RegionalEncodings(
0:                                          (linear): Linear(in_features=4, out_features=512, bias=True)
0:                                        )
0:                                        (position_embeddings): Embedding(512, 512)
0:                                        (lang_embeddings): Embedding(3, 512)
0:                                        (embeddings): Embedding(43583, 512, padding_idx=2)
0:                                        (layer_norm_emb): LayerNorm((512,), eps=1e-12, elementwise_affine=True)
0:                                        (attentions): ModuleList(
0:                                          (0): MultiHeadAttention(
0:                                            (q_lin): Linear(in_features=512, out_features=512, bias=True)
0:                                            (k_lin): Linear(in_features=512, out_features=512, bias=True)
0:                                            (v_lin): Linear(in_features=512, out_features=512, bias=True)
0:                                            (out_lin): Linear(in_features=512, out_features=512, bias=True)
0:                                          )
0:                                          (1): MultiHeadAttention(
0:                                            (q_lin): Linear(in_features=512, out_features=512, bias=True)
0:                                            (k_lin): Linear(in_features=512, out_features=512, bias=True)
0:                                            (v_lin): Linear(in_features=512, out_features=512, bias=True)
0:                                            (out_lin): Linear(in_features=512, out_features=512, bias=True)
0:                                          )
0:                                          (2): MultiHeadAttention(
0:                                            (q_lin): Linear(in_features=512, out_features=512, bias=True)
0:                                            (k_lin): Linear(in_features=512, out_features=512, bias=True)
0:                                            (v_lin): Linear(in_features=512, out_features=512, bias=True)
0:                                            (out_lin): Linear(in_features=512, out_features=512, bias=True)
0:                                          )
0:                                          (3): MultiHeadAttention(
0:                                            (q_lin): Linear(in_features=512, out_features=512, bias=True)
0:                                            (k_lin): Linear(in_features=512, out_features=512, bias=True)
0:                                            (v_lin): Linear(in_features=512, out_features=512, bias=True)
0:                                            (out_lin): Linear(in_features=512, out_features=512, bias=True)
0:                                          )
0:                                          (4): MultiHeadAttention(
0:                                            (q_lin): Linear(in_features=512, out_features=512, bias=True)
0:                                            (k_lin): Linear(in_features=512, out_features=512, bias=True)
0:                                            (v_lin): Linear(in_features=512, out_features=512, bias=True)
0:                                            (out_lin): Linear(in_features=512, out_features=512, bias=True)
0:                                          )
0:                                          (5): MultiHeadAttention(
0:                                            (q_lin): Linear(in_features=512, out_features=512, bias=True)
0:                                            (k_lin): Linear(in_features=512, out_features=512, bias=True)
0:                                            (v_lin): Linear(in_features=512, out_features=512, bias=True)
0:                                            (out_lin): Linear(in_features=512, out_features=512, bias=True)
0:                                          )
0:                                        )
0:                                        (layer_norm1): ModuleList(
0:                                          (0): LayerNorm((512,), eps=1e-12, elementwise_affine=True)
0:                                          (1): LayerNorm((512,), eps=1e-12, elementwise_affine=True)
0:                                          (2): LayerNorm((512,), eps=1e-12, elementwise_affine=True)
0:                                          (3): LayerNorm((512,), eps=1e-12, elementwise_affine=True)
0:                                          (4): LayerNorm((512,), eps=1e-12, elementwise_affine=True)
0:                                          (5): LayerNorm((512,), eps=1e-12, elementwise_affine=True)
0:                                        )
0:                                        (ffns): ModuleList(
0:                                          (0): TransformerFFN(
0:                                            (lin1): Linear(in_features=512, out_features=2048, bias=True)
0:                                            (lin2): Linear(in_features=2048, out_features=512, bias=True)
0:                                          )
0:                                          (1): TransformerFFN(
0:                                            (lin1): Linear(in_features=512, out_features=2048, bias=True)
0:                                            (lin2): Linear(in_features=2048, out_features=512, bias=True)
0:                                          )
0:                                          (2): TransformerFFN(
0:                                            (lin1): Linear(in_features=512, out_features=2048, bias=True)
0:                                            (lin2): Linear(in_features=2048, out_features=512, bias=True)
0:                                          )
0:                                          (3): TransformerFFN(
0:                                            (lin1): Linear(in_features=512, out_features=2048, bias=True)
0:                                            (lin2): Linear(in_features=2048, out_features=512, bias=True)
0:                                          )
0:                                          (4): TransformerFFN(
0:                                            (lin1): Linear(in_features=512, out_features=2048, bias=True)
0:                                            (lin2): Linear(in_features=2048, out_features=512, bias=True)
0:                                          )
0:                                          (5): TransformerFFN(
0:                                            (lin1): Linear(in_features=512, out_features=2048, bias=True)
0:                                            (lin2): Linear(in_features=2048, out_features=512, bias=True)
0:                                          )
0:                                        )
0:                                        (layer_norm2): ModuleList(
0:                                          (0): LayerNorm((512,), eps=1e-12, elementwise_affine=True)
0:                                          (1): LayerNorm((512,), eps=1e-12, elementwise_affine=True)
0:                                          (2): LayerNorm((512,), eps=1e-12, elementwise_affine=True)
0:                                          (3): LayerNorm((512,), eps=1e-12, elementwise_affine=True)
0:                                          (4): LayerNorm((512,), eps=1e-12, elementwise_affine=True)
0:                                          (5): LayerNorm((512,), eps=1e-12, elementwise_affine=True)
0:                                        )
0:                                        (memories): ModuleDict()
0:                                        (pred_layer): PredLayer(
0:                                          (proj): Linear(in_features=512, out_features=43583, bias=True)
0:                                        )
0:                                        (img_pred_layer): ImgPredLayer(
0:                                          (proj): Linear(in_features=512, out_features=601, bias=True)
0:                                        )
0:                                      )
0: INFO - 04/21/20 23:17:12 - 0:06:34 - Number of parameters (model): 42634904
4: INFO - 04/21/20 23:17:15 - 0:06:36 - Found 0 memories.
4: INFO - 04/21/20 23:17:15 - 0:06:36 - Found 6 FFN.
4: INFO - 04/21/20 23:17:15 - 0:06:36 - Found 108 parameters in model.
4: INFO - 04/21/20 23:17:15 - 0:06:36 - Using nn.parallel.DistributedDataParallel ...
0: INFO - 04/21/20 23:17:15 - 0:06:36 - Found 0 memories.
0: INFO - 04/21/20 23:17:15 - 0:06:36 - Found 6 FFN.
0: INFO - 04/21/20 23:17:15 - 0:06:36 - Found 108 parameters in model.
0: INFO - 04/21/20 23:17:15 - 0:06:36 - Using nn.parallel.DistributedDataParallel ...
1: INFO - 04/21/20 23:17:27 - 0:06:49 - Model: TransformerModel(
1:                                        (projector): Projector(
1:                                          (linear): Linear(in_features=1536, out_features=512, bias=True)
1:                                        )
1:                                        (regional_encodings): RegionalEncodings(
1:                                          (linear): Linear(in_features=4, out_features=512, bias=True)
1:                                        )
1:                                        (position_embeddings): Embedding(512, 512)
1:                                        (lang_embeddings): Embedding(3, 512)
1:                                        (embeddings): Embedding(43583, 512, padding_idx=2)
1:                                        (layer_norm_emb): LayerNorm((512,), eps=1e-12, elementwise_affine=True)
1:                                        (attentions): ModuleList(
1:                                          (0): MultiHeadAttention(
1:                                            (q_lin): Linear(in_features=512, out_features=512, bias=True)
1:                                            (k_lin): Linear(in_features=512, out_features=512, bias=True)
1:                                            (v_lin): Linear(in_features=512, out_features=512, bias=True)
1:                                            (out_lin): Linear(in_features=512, out_features=512, bias=True)
1:                                          )
1:                                          (1): MultiHeadAttention(
1:                                            (q_lin): Linear(in_features=512, out_features=512, bias=True)
1:                                            (k_lin): Linear(in_features=512, out_features=512, bias=True)
1:                                            (v_lin): Linear(in_features=512, out_features=512, bias=True)
1:                                            (out_lin): Linear(in_features=512, out_features=512, bias=True)
1:                                          )
1:                                          (2): MultiHeadAttention(
1:                                            (q_lin): Linear(in_features=512, out_features=512, bias=True)
1:                                            (k_lin): Linear(in_features=512, out_features=512, bias=True)
1:                                            (v_lin): Linear(in_features=512, out_features=512, bias=True)
1:                                            (out_lin): Linear(in_features=512, out_features=512, bias=True)
1:                                          )
1:                                          (3): MultiHeadAttention(
1:                                            (q_lin): Linear(in_features=512, out_features=512, bias=True)
1:                                            (k_lin): Linear(in_features=512, out_features=512, bias=True)
1:                                            (v_lin): Linear(in_features=512, out_features=512, bias=True)
1:                                            (out_lin): Linear(in_features=512, out_features=512, bias=True)
1:                                          )
1:                                          (4): MultiHeadAttention(
1:                                            (q_lin): Linear(in_features=512, out_features=512, bias=True)
1:                                            (k_lin): Linear(in_features=512, out_features=512, bias=True)
1:                                            (v_lin): Linear(in_features=512, out_features=512, bias=True)
1:                                            (out_lin): Linear(in_features=512, out_features=512, bias=True)
1:                                          )
1:                                          (5): MultiHeadAttention(
1:                                            (q_lin): Linear(in_features=512, out_features=512, bias=True)
1:                                            (k_lin): Linear(in_features=512, out_features=512, bias=True)
1:                                            (v_lin): Linear(in_features=512, out_features=512, bias=True)
1:                                            (out_lin): Linear(in_features=512, out_features=512, bias=True)
1:                                          )
1:                                        )
1:                                        (layer_norm1): ModuleList(
1:                                          (0): LayerNorm((512,), eps=1e-12, elementwise_affine=True)
1:                                          (1): LayerNorm((512,), eps=1e-12, elementwise_affine=True)
1:                                          (2): LayerNorm((512,), eps=1e-12, elementwise_affine=True)
1:                                          (3): LayerNorm((512,), eps=1e-12, elementwise_affine=True)
1:                                          (4): LayerNorm((512,), eps=1e-12, elementwise_affine=True)
1:                                          (5): LayerNorm((512,), eps=1e-12, elementwise_affine=True)
1:                                        )
1:                                        (ffns): ModuleList(
1:                                          (0): TransformerFFN(
1:                                            (lin1): Linear(in_features=512, out_features=2048, bias=True)
1:                                            (lin2): Linear(in_features=2048, out_features=512, bias=True)
1:                                          )
1:                                          (1): TransformerFFN(
1:                                            (lin1): Linear(in_features=512, out_features=2048, bias=True)
1:                                            (lin2): Linear(in_features=2048, out_features=512, bias=True)
1:                                          )
1:                                          (2): TransformerFFN(
1:                                            (lin1): Linear(in_features=512, out_features=2048, bias=True)
1:                                            (lin2): Linear(in_features=2048, out_features=512, bias=True)
1:                                          )
1:                                          (3): TransformerFFN(
1:                                            (lin1): Linear(in_features=512, out_features=2048, bias=True)
1:                                            (lin2): Linear(in_features=2048, out_features=512, bias=True)
1:                                          )
1:                                          (4): TransformerFFN(
1:                                            (lin1): Linear(in_features=512, out_features=2048, bias=True)
1:                                            (lin2): Linear(in_features=2048, out_features=512, bias=True)
1:                                          )
1:                                          (5): TransformerFFN(
1:                                            (lin1): Linear(in_features=512, out_features=2048, bias=True)
1:                                            (lin2): Linear(in_features=2048, out_features=512, bias=True)
1:                                          )
1:                                        )
1:                                        (layer_norm2): ModuleList(
1:                                          (0): LayerNorm((512,), eps=1e-12, elementwise_affine=True)
1:                                          (1): LayerNorm((512,), eps=1e-12, elementwise_affine=True)
1:                                          (2): LayerNorm((512,), eps=1e-12, elementwise_affine=True)
1:                                          (3): LayerNorm((512,), eps=1e-12, elementwise_affine=True)
1:                                          (4): LayerNorm((512,), eps=1e-12, elementwise_affine=True)
1:                                          (5): LayerNorm((512,), eps=1e-12, elementwise_affine=True)
1:                                        )
1:                                        (memories): ModuleDict()
1:                                        (pred_layer): PredLayer(
1:                                          (proj): Linear(in_features=512, out_features=43583, bias=True)
1:                                        )
1:                                        (img_pred_layer): ImgPredLayer(
1:                                          (proj): Linear(in_features=512, out_features=601, bias=True)
1:                                        )
1:                                      )
1: INFO - 04/21/20 23:17:27 - 0:06:49 - Number of parameters (model): 42634904
1: INFO - 04/21/20 23:17:30 - 0:06:51 - Found 0 memories.
1: INFO - 04/21/20 23:17:30 - 0:06:51 - Found 6 FFN.
1: INFO - 04/21/20 23:17:30 - 0:06:51 - Found 108 parameters in model.
1: INFO - 04/21/20 23:17:30 - 0:06:51 - Using nn.parallel.DistributedDataParallel ...
…
0: frame #3: <unknown function> + 0x2956c4 (0x7f3d003596c4 in /home/menekse/virtualenvs/torch_env/lib/python3.6/site-packages/torch/lib/libtorch_python.so)
0: <omitting python frames>
0: frame #35: main + 0x119 (0x400a99 in /home/menekse/virtualenvs/torch_env/bin/python)
0: frame #36: __libc_start_main + 0xf5 (0x7f3d114a93d5 in /lib64/libc.so.6)
0: frame #37: /home/menekse/virtualenvs/torch_env/bin/python() [0x400c20]
0: 
1: INFO - 04/21/20 23:18:06 - 0:07:28 - Model: TransformerModel(
1:                                        (projector): Projector(
1:                                          (linear): Linear(in_features=1536, out_features=512, bias=True)
1:                                        )
1:                                        (regional_encodings): RegionalEncodings(
1:                                          (linear): Linear(in_features=4, out_features=512, bias=True)
1:                                        )
1:                                        (position_embeddings): Embedding(512, 512)
1:                                        (lang_embeddings): Embedding(3, 512)
1:                                        (embeddings): Embedding(43583, 512, padding_idx=2)
1:                                        (layer_norm_emb): LayerNorm((512,), eps=1e-12, elementwise_affine=True)
1:                                        (attentions): ModuleList(
1:                                          (0): MultiHeadAttention(
1:                                            (q_lin): Linear(in_features=512, out_features=512, bias=True)
1:                                            (k_lin): Linear(in_features=512, out_features=512, bias=True)
1:                                            (v_lin): Linear(in_features=512, out_features=512, bias=True)
1:                                            (out_lin): Linear(in_features=512, out_features=512, bias=True)
1:                                          )
1:                                          (1): MultiHeadAttention(
1:                                            (q_lin): Linear(in_features=512, out_features=512, bias=True)
1:                                            (k_lin): Linear(in_features=512, out_features=512, bias=True)
1:                                            (v_lin): Linear(in_features=512, out_features=512, bias=True)
1:                                            (out_lin): Linear(in_features=512, out_features=512, bias=True)
1:                                          )
1:                                          (2): MultiHeadAttention(
1:                                            (q_lin): Linear(in_features=512, out_features=512, bias=True)
1:                                            (k_lin): Linear(in_features=512, out_features=512, bias=True)
1:                                            (v_lin): Linear(in_features=512, out_features=512, bias=True)
1:                                            (out_lin): Linear(in_features=512, out_features=512, bias=True)
1:                                          )
1:                                          (3): MultiHeadAttention(
1:                                            (q_lin): Linear(in_features=512, out_features=512, bias=True)
1:                                            (k_lin): Linear(in_features=512, out_features=512, bias=True)
1:                                            (v_lin): Linear(in_features=512, out_features=512, bias=True)
1:                                            (out_lin): Linear(in_features=512, out_features=512, bias=True)
1:                                          )
1:                                          (4): MultiHeadAttention(
1:                                            (q_lin): Linear(in_features=512, out_features=512, bias=True)
1:                                            (k_lin): Linear(in_features=512, out_features=512, bias=True)
1:                                            (v_lin): Linear(in_features=512, out_features=512, bias=True)
1:                                            (out_lin): Linear(in_features=512, out_features=512, bias=True)
1:                                          )
1:                                          (5): MultiHeadAttention(
1:                                            (q_lin): Linear(in_features=512, out_features=512, bias=True)
1:                                            (k_lin): Linear(in_features=512, out_features=512, bias=True)
1:                                            (v_lin): Linear(in_features=512, out_features=512, bias=True)
1:                                            (out_lin): Linear(in_features=512, out_features=512, bias=True)
1:                                          )
1:                                        )
1:                                        (layer_norm1): ModuleList(
1:                                          (0): LayerNorm((512,), eps=1e-12, elementwise_affine=True)
1:                                          (1): LayerNorm((512,), eps=1e-12, elementwise_affine=True)
1:                                          (2): LayerNorm((512,), eps=1e-12, elementwise_affine=True)
1:                                          (3): LayerNorm((512,), eps=1e-12, elementwise_affine=True)
1:                                          (4): LayerNorm((512,), eps=1e-12, elementwise_affine=True)
1:                                          (5): LayerNorm((512,), eps=1e-12, elementwise_affine=True)
1:                                        )
1:                                        (ffns): ModuleList(
1:                                          (0): TransformerFFN(
1:                                            (lin1): Linear(in_features=512, out_features=2048, bias=True)
1:                                            (lin2): Linear(in_features=2048, out_features=512, bias=True)
1:                                          )
1:                                          (1): TransformerFFN(
1:                                            (lin1): Linear(in_features=512, out_features=2048, bias=True)
1:                                            (lin2): Linear(in_features=2048, out_features=512, bias=True)
1:                                          )
1:                                          (2): TransformerFFN(
1:                                            (lin1): Linear(in_features=512, out_features=2048, bias=True)
1:                                            (lin2): Linear(in_features=2048, out_features=512, bias=True)
1:                                          )
1:                                          (3): TransformerFFN(
1:                                            (lin1): Linear(in_features=512, out_features=2048, bias=True)
1:                                            (lin2): Linear(in_features=2048, out_features=512, bias=True)
1:                                          )
1:                                          (4): TransformerFFN(
1:                                            (lin1): Linear(in_features=512, out_features=2048, bias=True)
1:                                            (lin2): Linear(in_features=2048, out_features=512, bias=True)
1:                                          )
1:                                          (5): TransformerFFN(
1:                                            (lin1): Linear(in_features=512, out_features=2048, bias=True)
1:                                            (lin2): Linear(in_features=2048, out_features=512, bias=True)
1:                                          )
1:                                        )
1:                                        (layer_norm2): ModuleList(
1:                                          (0): LayerNorm((512,), eps=1e-12, elementwise_affine=True)
1:                                          (1): LayerNorm((512,), eps=1e-12, elementwise_affine=True)
1:                                          (2): LayerNorm((512,), eps=1e-12, elementwise_affine=True)
1:                                          (3): LayerNorm((512,), eps=1e-12, elementwise_affine=True)
1:                                          (4): LayerNorm((512,), eps=1e-12, elementwise_affine=True)
1:                                          (5): LayerNorm((512,), eps=1e-12, elementwise_affine=True)
1:                                        )
1:                                        (memories): ModuleDict()
1:                                        (pred_layer): PredLayer(
1:                                          (proj): Linear(in_features=512, out_features=43583, bias=True)
1:                                        )
1:                                        (img_pred_layer): ImgPredLayer(
1:                                          (proj): Linear(in_features=512, out_features=601, bias=True)
1:                                        )
1:                                      )
1: INFO - 04/21/20 23:18:06 - 0:07:28 - Number of parameters (model): 42634904
1: INFO - 04/21/20 23:18:10 - 0:07:32 - Found 0 memories.
1: INFO - 04/21/20 23:18:10 - 0:07:32 - Found 6 FFN.
1: INFO - 04/21/20 23:18:10 - 0:07:32 - Found 108 parameters in model.
1: INFO - 04/21/20 23:18:10 - 0:07:32 - Using nn.parallel.DistributedDataParallel ...
1: INFO - 04/21/20 23:18:18 - 0:07:39 - Model: TransformerModel(
1:                                        (projector): Projector(
1:                                          (linear): Linear(in_features=1536, out_features=512, bias=True)
1:                                        )
1:                                        (regional_encodings): RegionalEncodings(
1:                                          (linear): Linear(in_features=4, out_features=512, bias=True)
1:                                        )
1:                                        (position_embeddings): Embedding(512, 512)
1:                                        (lang_embeddings): Embedding(3, 512)
1:                                        (embeddings): Embedding(43583, 512, padding_idx=2)
1:                                        (layer_norm_emb): LayerNorm((512,), eps=1e-12, elementwise_affine=True)
1:                                        (attentions): ModuleList(
1:                                          (0): MultiHeadAttention(
1:                                            (q_lin): Linear(in_features=512, out_features=512, bias=True)
1:                                            (k_lin): Linear(in_features=512, out_features=512, bias=True)
1:                                            (v_lin): Linear(in_features=512, out_features=512, bias=True)
1:                                            (out_lin): Linear(in_features=512, out_features=512, bias=True)
1:                                          )
1:                                          (1): MultiHeadAttention(
1:                                            (q_lin): Linear(in_features=512, out_features=512, bias=True)
1:                                            (k_lin): Linear(in_features=512, out_features=512, bias=True)
1:                                            (v_lin): Linear(in_features=512, out_features=512, bias=True)
1:                                            (out_lin): Linear(in_features=512, out_features=512, bias=True)
1:                                          )
1:                                          (2): MultiHeadAttention(
1:                                            (q_lin): Linear(in_features=512, out_features=512, bias=True)
1:                                            (k_lin): Linear(in_features=512, out_features=512, bias=True)
1:                                            (v_lin): Linear(in_features=512, out_features=512, bias=True)
1:                                            (out_lin): Linear(in_features=512, out_features=512, bias=True)
1:                                          )
1:                                          (3): MultiHeadAttention(
1:                                            (q_lin): Linear(in_features=512, out_features=512, bias=True)
1:                                            (k_lin): Linear(in_features=512, out_features=512, bias=True)
1:                                            (v_lin): Linear(in_features=512, out_features=512, bias=True)
1:                                            (out_lin): Linear(in_features=512, out_features=512, bias=True)
1:                                          )
1:                                          (4): MultiHeadAttention(
1:                                            (q_lin): Linear(in_features=512, out_features=512, bias=True)
1:                                            (k_lin): Linear(in_features=512, out_features=512, bias=True)
1:                                            (v_lin): Linear(in_features=512, out_features=512, bias=True)
1:                                            (out_lin): Linear(in_features=512, out_features=512, bias=True)
1:                                          )
1:                                          (5): MultiHeadAttention(
1:                                            (q_lin): Linear(in_features=512, out_features=512, bias=True)
1:                                            (k_lin): Linear(in_features=512, out_features=512, bias=True)
1:                                            (v_lin): Linear(in_features=512, out_features=512, bias=True)
1:                                            (out_lin): Linear(in_features=512, out_features=512, bias=True)
1:                                          )
1:                                        )
1:                                        (layer_norm1): ModuleList(
1:                                          (0): LayerNorm((512,), eps=1e-12, elementwise_affine=True)
1:                                          (1): LayerNorm((512,), eps=1e-12, elementwise_affine=True)
1:                                          (2): LayerNorm((512,), eps=1e-12, elementwise_affine=True)
1:                                          (3): LayerNorm((512,), eps=1e-12, elementwise_affine=True)
1:                                          (4): LayerNorm((512,), eps=1e-12, elementwise_affine=True)
1:                                          (5): LayerNorm((512,), eps=1e-12, elementwise_affine=True)
1:                                        )
1:                                        (ffns): ModuleList(
1:                                          (0): TransformerFFN(
1:                                            (lin1): Linear(in_features=512, out_features=2048, bias=True)
1:                                            (lin2): Linear(in_features=2048, out_features=512, bias=True)
1:                                          )
1:                                          (1): TransformerFFN(
1:                                            (lin1): Linear(in_features=512, out_features=2048, bias=True)
1:                                            (lin2): Linear(in_features=2048, out_features=512, bias=True)
1:                                          )
1:                                          (2): TransformerFFN(
1:                                            (lin1): Linear(in_features=512, out_features=2048, bias=True)
1:                                            (lin2): Linear(in_features=2048, out_features=512, bias=True)
1:                                          )
1:                                          (3): TransformerFFN(
1:                                            (lin1): Linear(in_features=512, out_features=2048, bias=True)
1:                                            (lin2): Linear(in_features=2048, out_features=512, bias=True)
1:                                          )
1:                                          (4): TransformerFFN(
1:                                            (lin1): Linear(in_features=512, out_features=2048, bias=True)
1:                                            (lin2): Linear(in_features=2048, out_features=512, bias=True)
1:                                          )
1:                                          (5): TransformerFFN(
1:                                            (lin1): Linear(in_features=512, out_features=2048, bias=True)
1:                                            (lin2): Linear(in_features=2048, out_features=512, bias=True)
1:                                          )
1:                                        )
1:                                        (layer_norm2): ModuleList(
1:                                          (0): LayerNorm((512,), eps=1e-12, elementwise_affine=True)
1:                                          (1): LayerNorm((512,), eps=1e-12, elementwise_affine=True)
1:                                          (2): LayerNorm((512,), eps=1e-12, elementwise_affine=True)
1:                                          (3): LayerNorm((512,), eps=1e-12, elementwise_affine=True)
1:                                          (4): LayerNorm((512,), eps=1e-12, elementwise_affine=True)
1:                                          (5): LayerNorm((512,), eps=1e-12, elementwise_affine=True)
1:                                        )
1:                                        (memories): ModuleDict()
1:                                        (pred_layer): PredLayer(
1:                                          (proj): Linear(in_features=512, out_features=43583, bias=True)
1:                                        )
1:                                        (img_pred_layer): ImgPredLayer(
1:                                          (proj): Linear(in_features=512, out_features=601, bias=True)
1:                                        )
1:                                      )
1: INFO - 04/21/20 23:18:18 - 0:07:39 - Number of parameters (model): 42634904
1: INFO - 04/21/20 23:18:20 - 0:07:42 - Found 0 memories.
1: INFO - 04/21/20 23:18:20 - 0:07:42 - Found 6 FFN.
1: INFO - 04/21/20 23:18:20 - 0:07:42 - Found 108 parameters in model.
1: INFO - 04/21/20 23:18:20 - 0:07:42 - Using nn.parallel.DistributedDataParallel ...
2: INFO - 04/21/20 23:18:22 - 0:07:43 - Model: TransformerModel(
2:                                        (projector): Projector(
2:                                          (linear): Linear(in_features=1536, out_features=512, bias=True)
2:                                        )
2:                                        (regional_encodings): RegionalEncodings(
2:                                          (linear): Linear(in_features=4, out_features=512, bias=True)
2:                                        )
2:                                        (position_embeddings): Embedding(512, 512)
2:                                        (lang_embeddings): Embedding(3, 512)
2:                                        (embeddings): Embedding(43583, 512, padding_idx=2)
2:                                        (layer_norm_emb): LayerNorm((512,), eps=1e-12, elementwise_affine=True)
2:                                        (attentions): ModuleList(
2:                                          (0): MultiHeadAttention(
2:                                            (q_lin): Linear(in_features=512, out_features=512, bias=True)
2:                                            (k_lin): Linear(in_features=512, out_features=512, bias=True)
2:                                            (v_lin): Linear(in_features=512, out_features=512, bias=True)
2:                                            (out_lin): Linear(in_features=512, out_features=512, bias=True)
2:                                          )
2:                                          (1): MultiHeadAttention(
2:                                            (q_lin): Linear(in_features=512, out_features=512, bias=True)
2:                                            (k_lin): Linear(in_features=512, out_features=512, bias=True)
2:                                            (v_lin): Linear(in_features=512, out_features=512, bias=True)
2:                                            (out_lin): Linear(in_features=512, out_features=512, bias=True)
2:                                          )
2:                                          (2): MultiHeadAttention(
2:                                            (q_lin): Linear(in_features=512, out_features=512, bias=True)
2:                                            (k_lin): Linear(in_features=512, out_features=512, bias=True)
2:                                            (v_lin): Linear(in_features=512, out_features=512, bias=True)
2:                                            (out_lin): Linear(in_features=512, out_features=512, bias=True)
2:                                          )
2:                                          (3): MultiHeadAttention(
2:                                            (q_lin): Linear(in_features=512, out_features=512, bias=True)
2:                                            (k_lin): Linear(in_features=512, out_features=512, bias=True)
2:                                            (v_lin): Linear(in_features=512, out_features=512, bias=True)
2:                                            (out_lin): Linear(in_features=512, out_features=512, bias=True)
2:                                          )
2:                                          (4): MultiHeadAttention(
2:                                            (q_lin): Linear(in_features=512, out_features=512, bias=True)
2:                                            (k_lin): Linear(in_features=512, out_features=512, bias=True)
2:                                            (v_lin): Linear(in_features=512, out_features=512, bias=True)
2:                                            (out_lin): Linear(in_features=512, out_features=512, bias=True)
2:                                          )
2:                                          (5): MultiHeadAttention(
2:                                            (q_lin): Linear(in_features=512, out_features=512, bias=True)
2:                                            (k_lin): Linear(in_features=512, out_features=512, bias=True)
2:                                            (v_lin): Linear(in_features=512, out_features=512, bias=True)
2:                                            (out_lin): Linear(in_features=512, out_features=512, bias=True)
2:                                          )
2:                                        )
2:                                        (layer_norm1): ModuleList(
2:                                          (0): LayerNorm((512,), eps=1e-12, elementwise_affine=True)
2:                                          (1): LayerNorm((512,), eps=1e-12, elementwise_affine=True)
2:                                          (2): LayerNorm((512,), eps=1e-12, elementwise_affine=True)
2:                                          (3): LayerNorm((512,), eps=1e-12, elementwise_affine=True)
2:                                          (4): LayerNorm((512,), eps=1e-12, elementwise_affine=True)
2:                                          (5): LayerNorm((512,), eps=1e-12, elementwise_affine=True)
2:                                        )
2:                                        (ffns): ModuleList(
2:                                          (0): TransformerFFN(
2:                                            (lin1): Linear(in_features=512, out_features=2048, bias=True)
2:                                            (lin2): Linear(in_features=2048, out_features=512, bias=True)
2:                                          )
2:                                          (1): TransformerFFN(
2:                                            (lin1): Linear(in_features=512, out_features=2048, bias=True)
2:                                            (lin2): Linear(in_features=2048, out_features=512, bias=True)
2:                                          )
2:                                          (2): TransformerFFN(
2:                                            (lin1): Linear(in_features=512, out_features=2048, bias=True)
2:                                            (lin2): Linear(in_features=2048, out_features=512, bias=True)
2:                                          )
2:                                          (3): TransformerFFN(
2:                                            (lin1): Linear(in_features=512, out_features=2048, bias=True)
2:                                            (lin2): Linear(in_features=2048, out_features=512, bias=True)
2:                                          )
2:                                          (4): TransformerFFN(
2:                                            (lin1): Linear(in_features=512, out_features=2048, bias=True)
2:                                            (lin2): Linear(in_features=2048, out_features=512, bias=True)
2:                                          )
2:                                          (5): TransformerFFN(
2:                                            (lin1): Linear(in_features=512, out_features=2048, bias=True)
2:                                            (lin2): Linear(in_features=2048, out_features=512, bias=True)
2:                                          )
2:                                        )
2:                                        (layer_norm2): ModuleList(
2:                                          (0): LayerNorm((512,), eps=1e-12, elementwise_affine=True)
2:                                          (1): LayerNorm((512,), eps=1e-12, elementwise_affine=True)
2:                                          (2): LayerNorm((512,), eps=1e-12, elementwise_affine=True)
2:                                          (3): LayerNorm((512,), eps=1e-12, elementwise_affine=True)
2:                                          (4): LayerNorm((512,), eps=1e-12, elementwise_affine=True)
2:                                          (5): LayerNorm((512,), eps=1e-12, elementwise_affine=True)
2:                                        )
2:                                        (memories): ModuleDict()
2:                                        (pred_layer): PredLayer(
2:                                          (proj): Linear(in_features=512, out_features=43583, bias=True)
2:                                        )
2:                                        (img_pred_layer): ImgPredLayer(
2:                                          (proj): Linear(in_features=512, out_features=601, bias=True)
2:                                        )
2:                                      )
2: INFO - 04/21/20 23:18:22 - 0:07:43 - Number of parameters (model): 42634904
2: INFO - 04/21/20 23:18:23 - 0:07:45 - Found 0 memories.
2: INFO - 04/21/20 23:18:23 - 0:07:45 - Found 6 FFN.
2: INFO - 04/21/20 23:18:23 - 0:07:45 - Found 108 parameters in model.
2: INFO - 04/21/20 23:18:23 - 0:07:45 - Using nn.parallel.DistributedDataParallel ...
3: INFO - 04/21/20 23:18:31 - 0:07:52 - Model: TransformerModel(
3:                                        (projector): Projector(
3:                                          (linear): Linear(in_features=1536, out_features=512, bias=True)
3:                                        )
3:                                        (regional_encodings): RegionalEncodings(
3:                                          (linear): Linear(in_features=4, out_features=512, bias=True)
3:                                        )
3:                                        (position_embeddings): Embedding(512, 512)
3:                                        (lang_embeddings): Embedding(3, 512)
3:                                        (embeddings): Embedding(43583, 512, padding_idx=2)
3:                                        (layer_norm_emb): LayerNorm((512,), eps=1e-12, elementwise_affine=True)
3:                                        (attentions): ModuleList(
3:                                          (0): MultiHeadAttention(
3:                                            (q_lin): Linear(in_features=512, out_features=512, bias=True)
3:                                            (k_lin): Linear(in_features=512, out_features=512, bias=True)
3:                                            (v_lin): Linear(in_features=512, out_features=512, bias=True)
3:                                            (out_lin): Linear(in_features=512, out_features=512, bias=True)
3:                                          )
3:                                          (1): MultiHeadAttention(
3:                                            (q_lin): Linear(in_features=512, out_features=512, bias=True)
3:                                            (k_lin): Linear(in_features=512, out_features=512, bias=True)
3:                                            (v_lin): Linear(in_features=512, out_features=512, bias=True)
3:                                            (out_lin): Linear(in_features=512, out_features=512, bias=True)
3:                                          )
3:                                          (2): MultiHeadAttention(
3:                                            (q_lin): Linear(in_features=512, out_features=512, bias=True)
3:                                            (k_lin): Linear(in_features=512, out_features=512, bias=True)
3:                                            (v_lin): Linear(in_features=512, out_features=512, bias=True)
3:                                            (out_lin): Linear(in_features=512, out_features=512, bias=True)
3:                                          )
3:                                          (3): MultiHeadAttention(
3:                                            (q_lin): Linear(in_features=512, out_features=512, bias=True)
3:                                            (k_lin): Linear(in_features=512, out_features=512, bias=True)
3:                                            (v_lin): Linear(in_features=512, out_features=512, bias=True)
3:                                            (out_lin): Linear(in_features=512, out_features=512, bias=True)
3:                                          )
3:                                          (4): MultiHeadAttention(
3:                                            (q_lin): Linear(in_features=512, out_features=512, bias=True)
3:                                            (k_lin): Linear(in_features=512, out_features=512, bias=True)
3:                                            (v_lin): Linear(in_features=512, out_features=512, bias=True)
3:                                            (out_lin): Linear(in_features=512, out_features=512, bias=True)
3:                                          )
3:                                          (5): MultiHeadAttention(
3:                                            (q_lin): Linear(in_features=512, out_features=512, bias=True)
3:                                            (k_lin): Linear(in_features=512, out_features=512, bias=True)
3:                                            (v_lin): Linear(in_features=512, out_features=512, bias=True)
3:                                            (out_lin): Linear(in_features=512, out_features=512, bias=True)
3:                                          )
3:                                        )
3:                                        (layer_norm1): ModuleList(
3:                                          (0): LayerNorm((512,), eps=1e-12, elementwise_affine=True)
3:                                          (1): LayerNorm((512,), eps=1e-12, elementwise_affine=True)
3:                                          (2): LayerNorm((512,), eps=1e-12, elementwise_affine=True)
3:                                          (3): LayerNorm((512,), eps=1e-12, elementwise_affine=True)
3:                                          (4): LayerNorm((512,), eps=1e-12, elementwise_affine=True)
3:                                          (5): LayerNorm((512,), eps=1e-12, elementwise_affine=True)
3:                                        )
3:                                        (ffns): ModuleList(
3:                                          (0): TransformerFFN(
3:                                            (lin1): Linear(in_features=512, out_features=2048, bias=True)
3:                                            (lin2): Linear(in_features=2048, out_features=512, bias=True)
3:                                          )
3:                                          (1): TransformerFFN(
3:                                            (lin1): Linear(in_features=512, out_features=2048, bias=True)
3:                                            (lin2): Linear(in_features=2048, out_features=512, bias=True)
3:                                          )
3:                                          (2): TransformerFFN(
3:                                            (lin1): Linear(in_features=512, out_features=2048, bias=True)
3:                                            (lin2): Linear(in_features=2048, out_features=512, bias=True)
3:                                          )
3:                                          (3): TransformerFFN(
3:                                            (lin1): Linear(in_features=512, out_features=2048, bias=True)
3:                                            (lin2): Linear(in_features=2048, out_features=512, bias=True)
3:                                          )
3:                                          (4): TransformerFFN(
3:                                            (lin1): Linear(in_features=512, out_features=2048, bias=True)
3:                                            (lin2): Linear(in_features=2048, out_features=512, bias=True)
3:                                          )
3:                                          (5): TransformerFFN(
3:                                            (lin1): Linear(in_features=512, out_features=2048, bias=True)
3:                                            (lin2): Linear(in_features=2048, out_features=512, bias=True)
3:                                          )
3:                                        )
3:                                        (layer_norm2): ModuleList(
3:                                          (0): LayerNorm((512,), eps=1e-12, elementwise_affine=True)
3:                                          (1): LayerNorm((512,), eps=1e-12, elementwise_affine=True)
3:                                          (2): LayerNorm((512,), eps=1e-12, elementwise_affine=True)
3:                                          (3): LayerNorm((512,), eps=1e-12, elementwise_affine=True)
3:                                          (4): LayerNorm((512,), eps=1e-12, elementwise_affine=True)
3:                                          (5): LayerNorm((512,), eps=1e-12, elementwise_affine=True)
3:                                        )
3:                                        (memories): ModuleDict()
3:                                        (pred_layer): PredLayer(
3:                                          (proj): Linear(in_features=512, out_features=43583, bias=True)
3:                                        )
3:                                        (img_pred_layer): ImgPredLayer(
3:                                          (proj): Linear(in_features=512, out_features=601, bias=True)
3:                                        )
3:                                      )
3: INFO - 04/21/20 23:18:31 - 0:07:52 - Number of parameters (model): 42634904
0: INFO - 04/21/20 23:18:32 - 0:07:53 - Model: TransformerModel(
0:                                        (projector): Projector(
0:                                          (linear): Linear(in_features=1536, out_features=512, bias=True)
0:                                        )
0:                                        (regional_encodings): RegionalEncodings(
0:                                          (linear): Linear(in_features=4, out_features=512, bias=True)
0:                                        )
0:                                        (position_embeddings): Embedding(512, 512)
0:                                        (lang_embeddings): Embedding(3, 512)
0:                                        (embeddings): Embedding(43583, 512, padding_idx=2)
0:                                        (layer_norm_emb): LayerNorm((512,), eps=1e-12, elementwise_affine=True)
0:                                        (attentions): ModuleList(
0:                                          (0): MultiHeadAttention(
0:                                            (q_lin): Linear(in_features=512, out_features=512, bias=True)
0:                                            (k_lin): Linear(in_features=512, out_features=512, bias=True)
0:                                            (v_lin): Linear(in_features=512, out_features=512, bias=True)
0:                                            (out_lin): Linear(in_features=512, out_features=512, bias=True)
0:                                          )
0:                                          (1): MultiHeadAttention(
0:                                            (q_lin): Linear(in_features=512, out_features=512, bias=True)
0:                                            (k_lin): Linear(in_features=512, out_features=512, bias=True)
0:                                            (v_lin): Linear(in_features=512, out_features=512, bias=True)
0:                                            (out_lin): Linear(in_features=512, out_features=512, bias=True)
0:                                          )
0:                                          (2): MultiHeadAttention(
0:                                            (q_lin): Linear(in_features=512, out_features=512, bias=True)
0:                                            (k_lin): Linear(in_features=512, out_features=512, bias=True)
0:                                            (v_lin): Linear(in_features=512, out_features=512, bias=True)
0:                                            (out_lin): Linear(in_features=512, out_features=512, bias=True)
0:                                          )
0:                                          (3): MultiHeadAttention(
0:                                            (q_lin): Linear(in_features=512, out_features=512, bias=True)
0:                                            (k_lin): Linear(in_features=512, out_features=512, bias=True)
0:                                            (v_lin): Linear(in_features=512, out_features=512, bias=True)
0:                                            (out_lin): Linear(in_features=512, out_features=512, bias=True)
0:                                          )
0:                                          (4): MultiHeadAttention(
0:                                            (q_lin): Linear(in_features=512, out_features=512, bias=True)
0:                                            (k_lin): Linear(in_features=512, out_features=512, bias=True)
0:                                            (v_lin): Linear(in_features=512, out_features=512, bias=True)
0:                                            (out_lin): Linear(in_features=512, out_features=512, bias=True)
0:                                          )
0:                                          (5): MultiHeadAttention(
0:                                            (q_lin): Linear(in_features=512, out_features=512, bias=True)
0:                                            (k_lin): Linear(in_features=512, out_features=512, bias=True)
0:                                            (v_lin): Linear(in_features=512, out_features=512, bias=True)
0:                                            (out_lin): Linear(in_features=512, out_features=512, bias=True)
0:                                          )
0:                                        )
0:                                        (layer_norm1): ModuleList(
0:                                          (0): LayerNorm((512,), eps=1e-12, elementwise_affine=True)
0:                                          (1): LayerNorm((512,), eps=1e-12, elementwise_affine=True)
0:                                          (2): LayerNorm((512,), eps=1e-12, elementwise_affine=True)
0:                                          (3): LayerNorm((512,), eps=1e-12, elementwise_affine=True)
0:                                          (4): LayerNorm((512,), eps=1e-12, elementwise_affine=True)
0:                                          (5): LayerNorm((512,), eps=1e-12, elementwise_affine=True)
0:                                        )
0:                                        (ffns): ModuleList(
0:                                          (0): TransformerFFN(
0:                                            (lin1): Linear(in_features=512, out_features=2048, bias=True)
0:                                            (lin2): Linear(in_features=2048, out_features=512, bias=True)
0:                                          )
0:                                          (1): TransformerFFN(
0:                                            (lin1): Linear(in_features=512, out_features=2048, bias=True)
0:                                            (lin2): Linear(in_features=2048, out_features=512, bias=True)
0:                                          )
0:                                          (2): TransformerFFN(
0:                                            (lin1): Linear(in_features=512, out_features=2048, bias=True)
0:                                            (lin2): Linear(in_features=2048, out_features=512, bias=True)
0:                                          )
0:                                          (3): TransformerFFN(
0:                                            (lin1): Linear(in_features=512, out_features=2048, bias=True)
0:                                            (lin2): Linear(in_features=2048, out_features=512, bias=True)
0:                                          )
0:                                          (4): TransformerFFN(
0:                                            (lin1): Linear(in_features=512, out_features=2048, bias=True)
0:                                            (lin2): Linear(in_features=2048, out_features=512, bias=True)
0:                                          )
0:                                          (5): TransformerFFN(
0:                                            (lin1): Linear(in_features=512, out_features=2048, bias=True)
0:                                            (lin2): Linear(in_features=2048, out_features=512, bias=True)
0:                                          )
0:                                        )
0:                                        (layer_norm2): ModuleList(
0:                                          (0): LayerNorm((512,), eps=1e-12, elementwise_affine=True)
0:                                          (1): LayerNorm((512,), eps=1e-12, elementwise_affine=True)
0:                                          (2): LayerNorm((512,), eps=1e-12, elementwise_affine=True)
0:                                          (3): LayerNorm((512,), eps=1e-12, elementwise_affine=True)
0:                                          (4): LayerNorm((512,), eps=1e-12, elementwise_affine=True)
0:                                          (5): LayerNorm((512,), eps=1e-12, elementwise_affine=True)
0:                                        )
0:                                        (memories): ModuleDict()
0:                                        (pred_layer): PredLayer(
0:                                          (proj): Linear(in_features=512, out_features=43583, bias=True)
0:                                        )
0:                                        (img_pred_layer): ImgPredLayer(
0:                                          (proj): Linear(in_features=512, out_features=601, bias=True)
0:                                        )
0:                                      )
0: INFO - 04/21/20 23:18:32 - 0:07:53 - Number of parameters (model): 42634904
3: INFO - 04/21/20 23:18:33 - 0:07:54 - Found 0 memories.
3: INFO - 04/21/20 23:18:33 - 0:07:54 - Found 6 FFN.
3: INFO - 04/21/20 23:18:33 - 0:07:54 - Found 108 parameters in model.
3: INFO - 04/21/20 23:18:33 - 0:07:54 - Using nn.parallel.DistributedDataParallel ...
…
